models/ppo/BipedalWalker-v3/ppo_actor.pth (torch, 558883 bytes, 8 tensors)

main.0.weight f4 [256, 24]
00000000: 4c51 0cbf 8354 973d 5f9a 883e d82e acbf
00000010: bb88 ebbd 5e93 cb3e 474a 113f 3d9f 15bd
00000020: 9f7c b1be 7eff aa3e 66d8 8bbe 41e4 4c3c
00000030: 33d5 3f3c 529c 98be 65bc 833e 10a9 dc3e
00000040: 3855 963e 7d64 7f3e 194b 733c 47f2 a83d
00000050: abe4 5d3e 960f 823e 50f9 483d e47b 693e
00000060: 0cb3 1e3e 30ac babe 2985 653c 8cc1 1bbe
00000070: 3a71 05bf 3e1b e2be 0f4d e6be b117 a03e
00000080: 407a b53e a00a 6cbf 2936 31be e29d ebbe
00000090: fd7f 1cbe 5780 ac3d 4043 2b3e 75ad 04bd
000000a0: 74ef d4bd 4db1 1cbe 346c a7bd a370 4abe
000000b0: 59c9 1fbe d683 18be daed a03d d7ec 543e
000000c0: 01c8 e8bc 4fad 77bd cfd9 ce3d 5e76 f23e
000000d0: 76d8 46bd 9157 013d 2fb6 873c 244c 943d
000000e0: e0f4 da3b 1aee fb3c 93e9 d6bd 6fbb fcbd
000000f0: df4f 153d 9049 edbb 7016 a4be 6bca 17be
00000100: 3d5b 54bd 2263 35be be65 1bbe 468f f9bd
00000110: 3442 4dbd 3330 d03b 0d7f aebe 2c63 51be
00000120: 1c19 623e 7b07 d73f 8268 09bf da18 8e3f
00000130: ebb7 69be ae47 aabe fc6d 033e 9017 a9be
00000140: e0e1 0bbe 5155 353f 2cb5 513e 8659 8abe
00000150: 7b92 963d 3d36 c63e e099 67be 0b66 53be
00000160: 4e00 753e 80e2 223e 5104 8d3e 2860 783e
00000170: 95da af3e 1e6c b63e 83b7 db3c 08d5 7dbd
00000180: de04 1d3e a89f c03d bc21 c0be c4a0 d13c
00000190: da41 8b3d 6ea6 0bbd 74d2 06bf 070e 7dbd
000001a0: caaf 04bf 1535 3fbe c109 20bf f024 41bf
000001b0: 3d2b 773e 7773 abbe c527 4cbd 41df df3d
000001c0: 12ea 67bc bb10 c03e 4533 473e f1a1 02be
000001d0: 6219 913c 2d15 593d 870b 233e 5263 663e
000001e0: 1356 db3e a329 613f 2af7 7abe c115 0e3e
000001f0: d456 34be acbf e0be 66aa 88be a8fd 5fbd
00000200: bad8 5ebc 708e dcbe a925 0bbe acf6 223e
00000210: 16ac a13d c50f 80be a5c3 5c3e 5451 8e3c
00000220: 3518 aabc 3373 a0bd 64ec f33d 5594 813e
00000230: a547 8c3e 714e 433e bfb3 3d3e 15a2 d7bd
00000240: 835d 85bd 9b79 033e 2a6f 4b3e 0fa3 92bd
00000250: 4aac 7dbd 4209 10be 245b e4bd 7a7d 05be
00000260: 77e7 12be 7f50 a23b 2fb3 383e 1c85 90be
00000270: 21fd 293e b522 61be 765e 07be 2d9e 62be
00000280: a4ce 89be 501c a4be a8e6 eebe 236e c2be
00000290: 20b4 5dbe bafc ffbd 0c23 83be b66d ebbd
000002a0: 9a43 04bf 016e 8ebe 61fa c73e c61b 94be
000002b0: d273 e53d 3f9f 053e 2dcb 1fbe 9a2a 8fbc
000002c0: 9027 903e af85 9cbe a3db 94bc 28b0 28bf
000002d0: 79cc 8dbd 861c 8d3d 85f6 cb3e 9f1b b43e
000002e0: eaea b53e caca 773e d91c 263e d954 353e
000002f0: b401 c6bc 48b0 893e 7fe7 b93e ff00 cf3e
00000300: 63f3 303e 0510 c43e 243d 50bf f79a 003f
00000310: c79e d5be 3b83 92bc 0c60 64be 6092 d7bd
00000320: 06c2 d83e 1ae3 053f f2ac b83d f6e6 9ebe
00000330: 8c5f 87be 15a6 023f fe69 34be 614a 273e
00000340: a2bf 2e3e 06c4 413e cbcf 1f3e 84d1 2d3d
00000350: 07e3 143e 4adb a83d 6d21 c93d e786 693d
00000360: 5b9c 9cbe 4ff0 babe 60c6 a93e 37be cbbe
00000370: 4048 013e 7c60 313e 3e9b 123d 6cab 093d
00000380: d690 03bf f7b5 79bd 2bcd 18be 21e8 dabd
00000390: 347f 123d c46c acbe 8299 23be 102d 4dbd
000003a0: 7560 87be a786 02be fd7b 54be 523b e1be
000003b0: a268 19be 3ef0 cbbe 5033 aebe 76b8 08be
000003c0: df38 f63d baf4 063f b2aa e5be 37f1 373e
000003d0: b5dd 893e a755 e7be a301 36bd 53b0 b0be
000003e0: ecc5 58be ef40 5c3e c28f 2b3d aef5 c83e
000003f0: 9026 9c3e dff4 a6be 314a d6be 3113 aebe
-0.5481155 0.07389166 0.26680276 -1.3451796 -0.11500689 0.3976087 0.56753963 -0.036528815
-0.3466539 0.3339805 -0.27313536 0.012505592 0.0117085455 -0.29806763 0.2572967 0.43097734
0.29361892 0.24940677 0.014849448 0.08249336 0.21669261 0.25402516 0.049065888 0.22801167
0.15497988 -0.36459494 0.014008799 -0.15210551 -0.52125895 -0.4416141 -0.44980666 0.31268075
0.35444832 -0.9220371 -0.17305817 -0.46018893 -0.15283199 0.084229164 0.16724873 -0.032391984
-0.103972346 -0.1530201 -0.08174935 -0.1976953 -0.15604152 -0.14894041 0.078578666 0.20793472
-0.028415682 -0.060468014 0.101001374 0.47355932 -0.048546277 0.03157765 0.016566364 0.07241085
0.0066820234 0.030753184 -0.104937695 -0.123404376 0.036453124 -0.0072414353 -0.32048368 -0.1482331
-0.051844824 -0.17713597 -0.1517553 -0.1218553 -0.050111964 0.006353402 -0.34081307 -0.20447987
0.22079891 1.6799158 -0.5367509 1.1101334 -0.22824065 -0.33257812 0.12834924 -0.3302579
-0.13660383 0.7083331 0.20479268 -0.27021426 0.07352158 0.38713256 -0.22617292 -0.20644395
0.23925897 0.15906715 0.27542356 0.2425543 0.34346452 0.35629362 0.026820904 -0.06197074
0.15333888 0.09405452 -0.37525737 0.025589354 0.067996696 -0.034094267 -0.52664876 -0.061780956
-0.5183073 -0.18672593 -0.62514883 -0.7544699 0.24137588 -0.3348653 -0.049842615 0.10931254
-0.014154928 0.37512764 0.19453152 -0.12757088 0.017712299 0.05299871 0.15922366 0.22498825
0.42839107 0.8795416 -0.24508348 0.13875486 -0.17611247 -0.43896234 -0.26692504 -0.054685265
-0.013601476 -0.4307742 -0.13588585 0.1591441 0.07894151 -0.2501203 0.21559007 0.017372765
-0.020763496 -0.078344725 0.11910322 0.2530848 0.2739841 0.19072892 0.18525599 -0.105289616
-0.065119766 0.12839358 0.19866624 -0.07160007 -0.061931886 -0.14066032 -0.11150196 -0.13036147
-0.1434611 0.0049534435 0.18037103 -0.28226554 0.16600467 -0.21985896 -0.13219628 -0.22130652
-0.26915467 -0.3205285 -0.46660352 -0.37974653 -0.21650743 -0.12499376 -0.25612676 -0.11495535
-0.5166565 -0.278183 0.3905821 -0.2892744 0.112037316 0.13049029 -0.15604849 -0.017476369
0.28155184 -0.30570742 -0.018171137 -0.65893793 -0.06923766 0.06890206 0.39836517 0.35177323
0.35530788 0.24198452 0.16221942 0.17708148 -0.024170734 0.26892304 0.3630943 0.40430447
0.17280345 0.38293472 -0.81343293 0.5023646 -0.417227 -0.017884841 -0.22302264 -0.10525966
0.42335528 0.52299654 0.09017362 -0.31035584 -0.26440084 0.5103467 -0.17618558 0.16336967
0.1706529 0.18922433 0.1560661 0.042436138 0.14539729 0.08244951 0.098208286 0.05701342
-0.3058804 -0.36511466 0.3315916 -0.3979356 0.12625217 0.17321962 0.03579258 0.033610746
-0.5139288 -0.06096455 -0.14922015 -0.10688806 0.03576584 -0.33676732 -0.15976527 -0.050091803
-0.26440778 -0.12746678 -0.20750423 -0.4399057 -0.1498132 -0.39831728 -0.34023523 -0.13351616
0.12022566 0.52717173 -0.44856793 0.1796311 0.26926962 -0.45182535 -0.044435155 -0.34509525
-0.21169251 0.21509145 0.041885145 0.3924994 0.3049817 -0.32608697 -0.4185348 -0.33999017

main.0.bias f4 [256]
00000000: 0c02 b0bb e68c 883e 4837 13be 1504 253e
00000010: ceab ce3d a553 8abe f3b8 c2be 516b a03e
00000020: 8342 29be fd9b c7be f668 9fbe 2c7a 59be
00000030: 790e d5bc e976 94be 5d7d 97bd d594 2e3e
00000040: 0831 52be 7f58 61be 1199 d5be 7e2a 94be
00000050: 0755 c5bd 974d 98be 8c62 02bd 9d38 ddbe
00000060: c32f 1abe e92e debe bd64 c33c cc55 98bd
00000070: 4799 5fbe 3cd6 ebbd 120a 93be fecb 35be
00000080: 4e13 17be c07e 593e d97d 95be 6279 b2bd
00000090: 9c19 cbbe e0c6 1dbe 3956 88be 329e b1bd
000000a0: cd30 47be 4e8d 5ebb 28d8 87be 52c9 60be
000000b0: 75bc 3e3c 4a42 c3be 937f 89be f764 74be
000000c0: 440b 223d 9aab 9bbd 4f91 c8be e19c cc3d
000000d0: 1129 16be 05cd d3be 8c28 3bbe 710f afbe
000000e0: 7d15 08bc 5582 83be cf0d b9be 3cb4 4ebe
000000f0: 51f0 45be a294 c0be b994 9bbd 3a91 f6bd
00000100: 4c3a 76bd 1a92 6a3e a7af 62be a0b6 0ebe
00000110: 0a28 c4be 3c60 a6be 4847 5fbe ec43 c5be
00000120: eca4 82be 0787 fb3c b094 6e3e 6219 efbd
00000130: 803f 60be d075 c5bd c79e 61be 7672 54be
00000140: 9244 563e 9aa9 303e 11c6 a3be a82f babe
00000150: 66ab 67bd 265e bcbe d5dd 46be 55cd d9bd
00000160: 52f4 3cbe 8dc7 67bd 2b9e 3abe 3a31 f1bc
00000170: f970 973e 8209 60bd 6d2a 86be f61a 01bf
00000180: 6e00 393e 4805 d73d 7fc2 983e e562 0bbe
00000190: 9e29 23be 6e03 88bd 1b23 183e 6949 313e
000001a0: 78d7 8ebe 94ec 57be c938 bbbd 2ebb 82be
000001b0: 8e0c acbd c969 2bbd 9806 b6be 5670 b9be
000001c0: 032c 8cbe 1967 1cbe 1078 9abe 7109 cbbc
000001d0: 2d37 b4bd e31c 99be f979 ffbe 866e 0bbc
000001e0: e91a 08be efcd b1bd 2451 82be f1b5 ee3d
000001f0: 105f 81be 41bf 623e cbb1 5cbe 60c8 69be
00000200: 3a1c e83c e684 c0be e35b cebe b38f 28be
00000210: 6b22 b8be eff0 55bd 87d2 583e d9f3 88bd
00000220: b496 113e ed09 39be 3869 7dbd 95f6 e3bd
00000230: 305e a63e 66c1 e0bd 9d47 12be ed0a 6fbe
00000240: c13c 253e 1d10 afbe 4bc6 1d3e 2f4c c9be
00000250: 9277 e4bd d1e7 1d3e b218 1abe a91e e23d
00000260: 74f6 fcbd 8559 6ebe 7be5 e23e 0e1e 6dbe
00000270: 7241 b7bd 066c 7d3e 8886 a1be 1425 233e
00000280: e54e 87bd 3529 04be d581 32be 7a84 afbe
00000290: 2c93 89be 5958 f1bc 6ed7 07be eabd 19bd
000002a0: 4598 91bd a154 14bc e13b 5abd 6bbc 24bd
000002b0: e378 9dbe fa36 99be 6ba6 32be 716f 69be
000002c0: d4f3 2ebe 0460 47be 4589 dbbe 0c55 33be
000002d0: 57ba 8dbe 8553 1c3e 4f35 973d 3ab0 4abe
000002e0: a7c1 49be 597a 98be 3fbc c4be 7f4b dfbe
000002f0: f2bc babd a50e 003f 7e93 1abd 23ff 03be
00000300: 9b0c c53d 3da7 97be 2e3d 83bd c950 aabe
00000310: 66c4 583e 82a2 e4bd f64a 96bd 8288 653e
00000320: caf0 81be 294f f7bd 4343 1cbe 7c37 82be
00000330: e085 1abd 9575 a73e 04ed 4fbe a73a 4cbe
00000340: fe95 d1be 99ca b6be 0600 a4be 47a7 32be
00000350: 29db 31be 00c4 0ebe d7d6 64be 7b02 1dbe
00000360: 96f6 2abd ca05 d0bd 72e4 8dbe f706 febb
00000370: 1b05 cdbe 50de a7be 5e18 a43c a2c7 463d
00000380: db05 68be 2962 bbbe 37b2 e5bd 7c83 a1be
00000390: ed08 3a3e 3505 8abe 725b 98bd 6492 9c3e
000003a0: b289 4dbe 28eb 3fbe 7e52 683e 196b 07be
000003b0: e7cd 67be 0aa6 c4bc d468 84be 4b5a 453b
000003c0: f734 7fbd d874 93be abd0 c1bd a26e 5bbe
000003d0: f357 0fbd ddbd 603e 1fcb d23d 4d62 84be
000003e0: b3bf 42be 4142 80bd 1fb1 0cbd 14e8 adbe
000003f0: fd95 05be c585 80bd eca0 9fbe aa92 ed3d
-0.0053713378 0.26669997 -0.14376557 0.16114838 0.10091363 -0.2701694 -0.3803173 0.31331876
-0.16529278 -0.38986197 -0.31134766 -0.21238011 -0.026007878 -0.2899697 -0.07396958 0.17048962
-0.20526516 -0.22006415 -0.41718343 -0.2893867 -0.09635358 -0.29746696 -0.031832263 -0.43207255
-0.15057282 -0.43395165 0.023851747 -0.074382395 -0.21835814 -0.11515471 -0.2871862 -0.17753598
-0.14753458 0.21239758 -0.29197577 -0.08714558 -0.39667976 -0.15407896 -0.26628283 -0.086727515
-0.1945221 -0.0033958736 -0.26532102 -0.21951798 0.011641611 -0.38136512 -0.26855144 -0.2386664
0.039561525 -0.0760109 -0.39173362 0.0999086 -0.14664103 -0.41367355 -0.18277186 -0.34191468
-0.008305904 -0.25685373 -0.36143348 -0.20185941 -0.19329955 -0.37613398 -0.07596726 -0.120394185
-0.06011419 0.22907296 -0.22137319 -0.13936853 -0.38311797 -0.32495296 -0.21804535 -0.38528383
-0.2551645 0.030704034 0.23298907 -0.11674763 -0.21899223 -0.096416116 -0.22033225 -0.20746788
0.20924595 0.17252198 -0.3198705 -0.36364484 -0.056559943 -0.3679058 -0.1942056 -0.10634867
-0.18452576 -0.05658679 -0.18224399 -0.029442418 0.2957838 -0.054696567 -0.26204243 -0.50431764
0.1806657 0.10499054 0.2983589 -0.13611944 -0.15933844 -0.06641279 0.14857142 0.1731316
-0.27898765 -0.21086341 -0.0914169 -0.25533432 -0.08400832 -0.04184893 -0.35551906 -0.36218518
-0.27377328 -0.15273704 -0.30169725 -0.024784775 -0.087995864 -0.2990485 -0.49897745 -0.008510238
-0.13291515 -0.08681857 -0.2545253 0.11655796 -0.2526784 0.2214327 -0.21552198 -0.22830343
0.028333772 -0.37601393 -0.4030448 -0.16461067 -0.3596376 -0.052231725 0.2117406 -0.06687135
0.14217645 -0.18070193 -0.061867923 -0.11131016 0.32493734 -0.10974388 -0.14285131 -0.23344012
0.16136457 -0.3419198 0.15407674 -0.39315936 -0.11155619 0.15420462 -0.15048483 0.11041004
-0.12351695 -0.23276336 0.44315705 -0.23155996 -0.089480296 0.24748239 -0.31547952 0.15932113
-0.06606845 -0.12906344 -0.1743234 -0.3428076 -0.26870096 -0.029461073 -0.13265774 -0.03753463
-0.07109121 -0.00905338 -0.05327976 -0.040218752 -0.30756292 -0.29924756 -0.17446296 -0.22796418
-0.170852 -0.19470221 -0.42878166 -0.17512912 -0.2768123 0.15266235 0.07383215 -0.19793788
-0.19702779 -0.29780844 -0.3842487 -0.43612286 -0.0911807 0.50022346 -0.037738316 -0.12890296
0.09621545 -0.2961978 -0.064081535 -0.3326476 0.2116867 -0.111638084 -0.073385164 0.22415355
-0.2537902 -0.120756455 -0.15260033 -0.25432956 -0.03772533 0.32706895 -0.20305258 -0.19944249
-0.40934747 -0.35701445 -0.32031268 -0.17446624 -0.17368759 -0.13941956 -0.2234758 -0.15332977
-0.04173907 -0.10157354 -0.27713352 -0.007752295 -0.40042958 -0.32786798 0.02003115 0.04853023
-0.22658484 -0.36598328 -0.112156324 -0.31545627 0.18167467 -0.26957098 -0.07439317 0.30580437
-0.20072058 -0.18742049 0.22687718 -0.13224448 -0.2263714 -0.024004955 -0.25861228 0.0030113633
-0.06230637 -0.28800082 -0.094636284 -0.21428922 -0.034995984 0.21947427 0.102926485 -0.25856248
-0.1901844 -0.06262637 -0.034348603 -0.33966124 -0.13045497 -0.062755145 -0.3117746 0.116002396

main.2.weight f4 [256, 256]
00000000: 698e 9cbb 7158 89bd 968f 16bd 7a95 a73a
00000010: 34ff 673b c133 98bd c366 283d 623a b0bd
00000020: 51bc 593d 0c11 27bd 8fd9 97bc bfc2 8bbd
00000030: f553 8bbc de29 bdbb d1f7 70bd 5ee1 83bd
00000040: 70f3 f8bc 439c 20bd 14df 8abd 2d6f 0ebd
00000050: b6c2 6dbd 03a2 0a3d 4696 46bd 4766 aa3b
00000060: 5ba2 85bc 6b52 d8bc 4337 453b d1e9 1c3d
00000070: d3d6 af3a 909f e8bd 9032 873d 0fd5 b73a
00000080: 55d4 09bc c33b 5c3c 8134 85bd 91f3 6abd
00000090: b7a3 b0bd ee51 b5bc 278d 11be 8042 dd3c
000000a0: e858 acbd 2e9e 85bd 4286 dcbb cc87 27bd
000000b0: 8995 84bc 40df b9bc 2e6e 62bd 879c 3abd
000000c0: b758 88bd 32f8 283d fab6 2fbc d304 80bd
000000d0: 13f1 06be dabb 3d3d 1b8c 013d 95ac 67bd
000000e0: d058 b0bd 7477 0bbd 3837 a33c 134c 5ebd
000000f0: 370b 363d f8b9 1ebd df13 0abc f6a6 59bd
00000100: 2038 4bbc 59bb a6bd 9692 5fbd 8e57 40bd
00000110: 075a 39bd 0eb6 dd3c d7cd 3cbd f45b 123d
00000120: e7d9 f8bc 6f82 58bd b5f3 b1bd 6524 febd
00000130: ae75 8fbd 338a bfbc 7bb3 3abd 64df 00be
00000140: a036 72bd 2611 afbd 9404 ec3c 8e37 4bbd
00000150: ff0a 56bc efd3 1abd 1187 a9bd 0dd0 083b
00000160: 8b8f 3ebd c4fd d9bc bf4e e43c af54 ee3c
00000170: 6ee3 27be 81f7 0d3d 0a9b 96bd 1b92 78bd
00000180: 18c7 a4bd cbd7 8fbd 667d d5bd 7245 debc
00000190: 5f44 60ba 5071 24bd 91d9 a4bc 1223 17be
000001a0: 15af 2c3d 37cc 033d 41e2 4b3c 75eb 2bbc
000001b0: 0ce9 8cbc 11ca cbbd e5a8 8dbd b322 253d
000001c0: bab6 96bd 5a57 55bb 9eff 273d 49f0 46bd
000001d0: 8794 97bd 5d36 863b 42ae f6bc 1733 9bbd
000001e0: 8fb3 65bd 0d1b cb3c 0d6c 36bd 3900 93bd
000001f0: c1c6 41bd 2046 88bd e4d5 163c d547 81bd
00000200: b885 dabd 0961 64bd dc81 a0bd dfef c2bc
00000210: 975d 2b3d a0f6 27bd 3024 10be 4182 893c
00000220: fe7b 94bd 85ef 84bd 20ba f439 d620 273d
00000230: 67ad 12bc feb6 2cbd 384c 45bd fcfe 133c
00000240: 7e25 02bd a18d 44bd 6db7 51bd 2193 183d
00000250: ce82 4e3c 821a fcbc 357c 14bc dcbf 9abd
00000260: b9f8 82bd ac49 59bd ec5c 103d 4d0a 69bd
00000270: 7e97 3fbd e3b6 59bd 1194 883d fecd 00be
00000280: 0638 d1bc 8fe0 07bc f422 cebb c4f1 55bd
00000290: 8322 47bd f2da 91bd 5133 d73c e17d 49bd
000002a0: 3398 98bd 3d53 223d 3f36 283c 54c2 d6bd
000002b0: 32d8 01bc 3708 19bd c2c6 e4bd 97bd 54bd
000002c0: 4684 42bd aa5a 9dbd fa68 85bd 4cf7 ef3c
000002d0: f704 6dbd ac32 26bd 31fe 36bd c33b a3bd
000002e0: b93f afbd 0a24 56bd c5f4 f63b 9c1e 4cbd
000002f0: da82 e83c 5254 c23c 045e 2f3d 136d 93bd
00000300: 1f1e 16be 51b3 d53c e253 19bb 4325 71bd
00000310: 1b82 91bd ab73 49bd 6679 b43c 5fef 8bbd
00000320: 0e07 813c 4bad afbc f255 b7bd ca99 743c
00000330: a865 28bd d689 b0bd 73a1 d53b 21a5 fabc
00000340: 7fc1 303b 0358 293c 01a8 b5bc 377c 053d
00000350: 9127 ed3b 6f55 96bc a2fc aa3b 6752 24bd
00000360: b44c 89bd bc66 d2bc 6ffc f4bc 65dd 8dbd
00000370: cb59 09bd 7193 12bd dfd6 00be f026 693c
00000380: 9da9 cbbc 572c 3dbc a10a 7fbc 69eb b8bc
00000390: 822e 8abd 9733 52bd c156 eabd 2845 22bd
000003a0: 0598 c93c d110 27bc 5e58 cfbc f8fe 313b
000003b0: 8f82 1cb9 0c00 e7bc bfea f33c fc48 0f3d
000003c0: dd2b acbd 593c 943d ce98 2bbd 1538 96bb
000003d0: 26bb 07bd f8fa a4bd 836b 88bd ee90 00bd
000003e0: 1153 23be 388b 14bd 263b 813d 9057 713c
000003f0: e2b8 97bd cd9d 0f3d e90e bebb 2fef 4e3d
-0.004777719 -0.06706322 -0.036758028 0.0012785636 0.0035399916 -0.07431746 0.041113626 -0.08604886
0.05315811 -0.04078774 -0.018536357 -0.06824254 -0.017007807 -0.005772813 -0.058830086 -0.0643947
-0.030389518 -0.039211523 -0.0678083 -0.034773994 -0.05804702 0.033845913 -0.048483156 0.0052001807
-0.016312769 -0.026406487 0.0030092753 0.038308922 0.0013415463 -0.11358559 0.06601441 0.0014025288
-0.00841244 0.013441983 -0.06504155 -0.05736119 -0.08624976 -0.022133794 -0.14214002 0.027009249
-0.08415395 -0.06524311 -0.006729872 -0.04090099 -0.016184585 -0.022689462 -0.055280857 -0.045559432
-0.06657546 0.041252322 -0.010724777 -0.0625092 -0.131779 0.046321727 0.031627756 -0.05656107
-0.0861069 -0.034049466 0.019923791 -0.05427177 0.04444429 -0.038751572 -0.008427589 -0.053137742
-0.012403518 -0.081412025 -0.054583155 -0.0469585 -0.045251872 0.02706435 -0.04609474 0.035732225
-0.030377341 -0.052858766 -0.086890616 -0.124092855 -0.070048675 -0.023381328 -0.045581322 -0.12585217
-0.059134126 -0.08548193 0.028810777 -0.049613528 -0.013064145 -0.037799772 -0.08277715 0.002087596
-0.046523612 -0.026610263 0.02786958 0.029093115 -0.16395351 0.034659866 -0.0735379 -0.060686212
-0.080457866 -0.07023581 -0.104243085 -0.027132723 -0.000855511 -0.040147126 -0.020123275 -0.14759472
0.04215916 0.032177176 0.01244408 -0.010493149 -0.01720097 -0.099506505 -0.0691698 0.040316295
-0.07359071 -0.0032553286 0.04101526 -0.048568998 -0.07401376 0.004095836 -0.03011239 -0.07578104
-0.056079444 0.024793172 -0.04453664 -0.07177777 -0.047308687 -0.06654 0.009206269 -0.06312529
-0.10670036 -0.055756602 -0.07837269 -0.02379602 0.0418373 -0.041006684 -0.14076304 0.016785743
-0.07250212 -0.06490997 0.0004667798 0.0408028 -0.008952475 -0.042166702 -0.04816839 0.009032961
-0.031774037 -0.04798663 -0.05120032 0.037249688 0.012604428 -0.030774359 -0.009062816 -0.075561255
-0.06395096 -0.053048775 0.035244867 -0.05689459 -0.046775334 -0.05315293 0.066688664 -0.1257858
-0.02553941 -0.008293285 -0.006290788 -0.05223252 -0.048616897 -0.07121839 0.026269587 -0.049192313
-0.07450905 0.039630163 0.0102668395 -0.10486284 -0.00792508 -0.03736135 -0.111707225 -0.05193862
-0.047489427 -0.076833084 -0.06514163 0.029292725 -0.057866063 -0.04057567 -0.04467601 -0.07970383
-0.08557076 -0.052280463 0.007536503 -0.04983388 0.028382707 0.023721848 0.04281427 -0.07198539
-0.14659928 0.026086481 -0.0023395945 -0.058873426 -0.07104894 -0.049182575 0.022030544 -0.06832766
0.015750434 -0.021444937 -0.0895194 0.014929244 -0.041112572 -0.0862004 0.0065194904 -0.030596318
0.0026970801 0.010335925 -0.022174837 0.032589164 0.0072373827 -0.018351285 0.0052181045 -0.040117647
-0.06704083 -0.025683753 -0.029905526 -0.06926993 -0.0335329 -0.035785142 -0.12581967 0.014230475
-0.024861151 -0.011546216 -0.015566499 -0.02257319 -0.06747152 -0.05131873 -0.11442328 -0.039616734
0.024608621 -0.01019688 -0.025310691 0.002716003 -0.00014925956 -0.028198265 0.029775022 0.034981713
-0.08406804 0.07238073 -0.041893773 -0.004584322 -0.033137463 -0.08055681 -0.06661131 -0.031388216
-0.15949656 -0.03626558 0.0631011 0.014730349 -0.074083105 0.0350626 -0.0058001173 0.050521072

main.2.bias f4 [256]
00000000: 670b 6abd adc9 d63c 468e b9bd 972e bbbc
00000010: 0836 d2bd e37c 74bd dbf6 843b fe8d 18be
00000020: 9f1b e9bd 9913 9fbd 1ccc cbbd 9d97 4bbd
00000030: 5ab1 173b cf0d e1bc fd54 9fbd 05d9 f4bd
00000040: 8dc2 53be 0bd6 26be 2c96 cbbd 2d5a b4bd
00000050: f5f4 203c 6255 89be 46bc 11be d4f9 dabd
00000060: d0a7 bdbc 8204 b7be 95e5 67be 15f7 a7bd
00000070: 825a 7dbd 11c7 a2bd 2dcd b3bc 2d4c 6cbd
00000080: 84d0 0fbd 6fdf 00bc 7012 94bd 5a05 a9bc
00000090: 0ddf b5bd 3710 04be ff82 5fbd cc89 b5bd
000000a0: 2d28 71bc 83ff 7fbd ae91 ba3b bb22 23bd
000000b0: d215 b4bd 7cab 8bbd 4d43 00be 4279 09bd
000000c0: 6e2a 39bc 5ce2 80bd e53a 403d fbb5 b2bd
000000d0: b7de e5bd a113 31be 8d72 5fbd d387 e0bd
000000e0: 60df 323e 39fb 6abd df31 3dbe 845f cfbd
000000f0: 43b4 b4bd e279 efbb ea3f 8fbd 977f c7bd
00000100: a6a9 5fbd 145f 3fbe 420f a3bd f045 8b3b
00000110: e1f0 123d 4add a8bc c716 90bd ebe4 16bd
00000120: 293a dfbd acb3 e6bd e57b aebe 845a a83d
00000130: bf4e 23bd a191 99be 1ef4 2abd c396 ecbc
00000140: b635 f1bd c444 93bd 1ab2 39be d8eb e4bd
00000150: 67d5 b9bc c50a 33be 3bd8 d83c f96e 7cbd
00000160: f4a9 c1bd bd2f 9bbd c665 0ebe 0a40 01be
00000170: b309 71bd a972 63bd 26d5 c7bd 83d2 233d
00000180: da32 b4bd 9e5f 98bd 1f92 01be 467f b1bd
00000190: bdfe 8bbd 101e 1cbd af1c fcbc 24fa c8bd
000001a0: cf20 c6bd 25da 61be b781 ccbd 1251 90bd
000001b0: 3ee7 8ebc 4a72 27be 2bb1 27be 52d1 ffbc
000001c0: 855c 933c a182 a2bd d77e 25be 4daf 39bd
000001d0: 1533 bc3d a4e9 57be c05d 0cbd 382f 05bd
000001e0: fa70 513c 5f90 c1bc 93f7 7bbd fc00 f5bd
000001f0: 518b 13bc 5785 b6bd b09a dfbb ba18 38bd
00000200: 1197 29bd 66f2 f9bd 1a68 adbd 9985 a93c
00000210: ea26 dfbc cfe5 a7be ada1 3abe 096e 87bd
00000220: dc64 263c 6343 d33b 1dc0 a63c 4cd5 4dbd
00000230: 1e71 1abe ad82 8fbd 9f83 82bd b2ef 19be
00000240: 301b 243c 8869 09be 1521 b2bd 44f8 89bd
00000250: 06b7 17bd 045a 43bb 7f0f 0fbd 463a 2fbe
00000260: 6dfb 85bd 8801 6cbe b705 ea3b 3e88 76bd
00000270: 672f e83d eb9b b4bd 82d2 05bd 7a77 15bd
00000280: f5aa c03d 230b 7fbd f6a1 c8bd 1451 ddbd
00000290: 6555 d93c d1cc 39be 9f82 063d 7b50 ac3a
000002a0: 05b2 98bb 921e 98bd 03f6 3fbd 5256 703b
000002b0: 3243 46bd 8cf8 43bd 5f15 d7bd 70ee f9bd
000002c0: 4898 8abd b500 3abd 4e80 1abd 4c9c 5bbd
000002d0: 04a9 7dbe 2d40 6d3d be35 c8bc b5a7 f73b
000002e0: 2287 d4bd b986 a5bc 335e 613d 8fea 60bd
000002f0: 801c 1b3e 53bf aabe 31fe 86bd 9800 bcbd
00000300: a398 0dbe 08b9 f6bd 9b97 fbbc 8026 06bd
00000310: 7d90 92bd bb9f 3bbd 9e10 66bd 9055 253e
00000320: 62d8 8cbd 32ab 19bd de86 acbd 6c12 c83c
00000330: 5ad6 37be cf9d 8fbd 7ead b5bd da06 47bd
00000340: fb25 2fbd eb43 95bc 35ba 94bc 05b0 d1bd
00000350: 34fb babc 3aa4 2cbe 88dd f4bd 367d c1bd
00000360: 11f2 f5bd f8cd 8cbd 649c c63c 931f f5bd
00000370: 6366 bdbc e3f6 90be bead 04be 8f81 2abd
00000380: e5aa 21bd 7158 863c 0cff 8a3d 4e1a c5bd
00000390: 660d 7fbd ebcf 1ebd 6bce 223d 9f5e 0fbd
000003a0: 7f32 f6bd 2f9d 24bd 1e94 11bd 08ad 36bc
000003b0: 280d c2bd 16c1 83bc 52e9 63bc 1a3c 07be
000003c0: 9466 efbd b98e bfbd c0ce bfbd 0b28 933c
000003d0: a0a6 52bd f2f0 6abd f317 dbbd 654e 54bd
000003e0: 9113 7a3d 71f2 1fbd 35db 59bd 5867 d1bd
000003f0: 3e5e 44be 5c48 d8bc a1b6 c33d 8070 1ebe
-0.05713978 0.026219213 -0.0906034 -0.022849364 -0.10264212 -0.059689414 0.004057748 -0.14897916
-0.113822214 -0.0776741 -0.0995104 -0.049705137 0.0023146481 -0.027472405 -0.07779882 -0.11955456
-0.20679684 -0.16292588 -0.099407524 -0.08806262 0.009824027 -0.26822954 -0.14231977 -0.10692182
-0.023151308 -0.35745627 -0.22646172 -0.08201424 -0.061853893 -0.07948125 -0.021948421 -0.057689834
-0.035110965 -0.007865771 -0.07230079 -0.020632435 -0.08880434 -0.1289681 -0.054568287 -0.08864173
-0.014719051 -0.062499534 0.005693636 -0.039828043 -0.087932244 -0.068198174 -0.12525673 -0.033562906
-0.01130162 -0.062931746 0.046931166 -0.08726116 -0.1122412 -0.17292644 -0.054552604 -0.109634064
0.17468023 -0.05736849 -0.18476056 -0.1012564 -0.08823445 -0.0073082307 -0.069946125 -0.09741133
-0.05460515 -0.18688613 -0.079618946 0.0042502806 0.03587425 -0.020613331 -0.070355944 -0.036839407
-0.10899765 -0.112647384 -0.340789 0.082203895 -0.03987002 -0.2999392 -0.041736715 -0.028880483
-0.11777823 -0.071908504 -0.18134347 -0.11177796 -0.022684766 -0.17484577 0.026470294 -0.06162927
-0.09456244 -0.07577465 -0.13906011 -0.12622085 -0.05884714 -0.05552927 -0.09757452 0.03999568
-0.08798762 -0.074401125 -0.12653397 -0.086668536 -0.06835697 -0.038114607 -0.030775396 -0.098133355
-0.096742265 -0.22055872 -0.09985679 -0.07046713 -0.01744425 -0.16352192 -0.16376178 -0.031227741
0.017988453 -0.07935072 -0.16161667 -0.045333195 0.091894306 -0.2108522 -0.034269094 -0.032515734
0.012783283 -0.023628412 -0.061515402 -0.119630784 -0.009005384 -0.08912151 -0.00682386 -0.044945456
-0.041403834 -0.12204437 -0.084671214 0.020693587 -0.027240235 -0.32792518 -0.18225737 -0.066127844
0.010155883 0.006447242 0.020355279 -0.050252244 -0.15082213 -0.07007346 -0.06372761 -0.15032843
0.010016248 -0.13419163 -0.08697716 -0.06736806 -0.03703978 -0.0029808292 -0.034926888 -0.17112073
-0.06542096 -0.23047459 0.0071417945 -0.060188524 0.11337166 -0.088188015 -0.03267146 -0.036490895
0.094076075 -0.06226648 -0.097965166 -0.1080648 0.026529977 -0.18144538 0.032839414 0.0013146544
-0.0046598935 -0.07427706 -0.046865474 0.0036672545 -0.048403926 -0.047844455 -0.10502123 -0.122036815
-0.067673266 -0.04541083 -0.037720017 -0.053615853 -0.24771506 0.05792253 -0.024439689 0.007557834
-0.10377337 -0.020205842 0.055021476 -0.054911193 0.1514759 -0.33349094 -0.06591452 -0.09179801
-0.13827758 -0.12047011 -0.03071194 -0.03275156 -0.07156465 -0.045806628 -0.05616819 0.16145921
-0.06877209 -0.03751678 -0.084241614 0.024422847 -0.17952862 -0.070125215 -0.08870982 -0.04859052
-0.04276083 -0.018220862 -0.018155197 -0.10238651 -0.022824861 -0.16859522 -0.11956316 -0.0944771
-0.12009061 -0.06875223 0.024244495 -0.11968913 -0.02312011 -0.2831336 -0.12956902 -0.041627463
-0.03946962 0.016399594 0.067869276 -0.09624158 -0.062268637 -0.038772505 0.039747637 -0.035002347
-0.1202135 -0.040188964 -0.035541646 -0.011149652 -0.094751656 -0.016083281 -0.013910608 -0.1320652
-0.11689487 -0.09353394 -0.09365606 0.01796343 -0.051428437 -0.05735869 -0.10697927 -0.051832575
0.061053816 -0.03904957 -0.053187568 -0.102247894 -0.19176576 -0.026401691 0.09556318 -0.15472603

main.4.weight f4 [256, 256]
00000000: 6a5f 35bd 43e0 b2bc cacd 53bd eae4 023d
00000010: 9edf 523c 55a2 cdbc bf22 4c3d 0395 eebd
00000020: 695d 293d 16db 673d 0b17 3ebc 0c1b 0a3d
00000030: 421f 6a3c 1fbe 13bc e75b 4c3c 672d 03be
00000040: 5c39 e13c e3ad 833d 58df 583d 9f4e 04be
00000050: 62d2 22bd ea50 67bc a43b f9bc 0a78 0d3d
00000060: fde6 2f3d 7206 fcbd 109b 01bc 98d6 053d
00000070: 7e02 883c cdf2 273d 3df1 a4bc c74a 013d
00000080: 53cd c03c a1e4 9a3d 76b5 d83c 4b9a 0b3d
00000090: 5e4a d9bd 4fb6 4ebd bb8f efbb 6b65 93bd
000000a0: f3d6 283d 441a ff3c 742a 863b 1936 01bc
000000b0: 04fe 72bc aa77 83bd f3ac 073c 6ad9 4fbd
000000c0: 7448 073d c1a4 2c3d 7643 013b 8e14 913b
000000d0: 6bc0 3dbd c293 e03c 366c 3abd 70df e5bc
000000e0: 30d7 53be 2b29 843c bb29 febb 5f74 373a
000000f0: 3a99 7bbc a396 30bd 282d efbc 832d 203d
00000100: f5ee 85bd a2ac 43bd 7a61 583c a3f1 d13b
00000110: f9ba 17bb f747 9b3d 8d0f 8dbd 836a 0c3d
00000120: 0e8a 71bc a332 8dbc 8141 1d3c 52c1 97bd
00000130: 302b 8a3c 5256 0dbe cb02 da3c 6ce9 83bd
00000140: dbf5 1f3d fef6 183c fa9e e6bd cb64 34bc
00000150: 4c65 463d 08f0 42bd 61b8 fbbc f2d4 c4bc
00000160: 13e9 8fbd 157f 283d c187 2f3c cb6d 04be
00000170: 8efd b2bd 5ccc 88bd 7bb4 9bbd eaa1 88bd
00000180: 662b a3be cb69 c3bb bf4b 3dbd 268b 443d
00000190: 4e44 e1bc 793b fe3c 1b5f 83bd bb53 4fbc
000001a0: 1421 8b3d 5796 7bbd 48ed 333d 40b7 243d
000001b0: 917d af3d 83fd 77bc 5bb4 a2bd 1000 1c3c
000001c0: accc 0bbd 98b8 9dbb 903a 5a3c 88b2 383b
000001d0: b19c 85bd 9d07 0bbd 1120 81bc ff0f 02be
000001e0: 86d4 1a3b 5c1b 96bd 90b7 53bd e4bd 1fbd
000001f0: 747a 7bbc b30a 48bc 6c80 6239 3d2e 2c3c
00000200: 25fb 013d 52d1 d43c fcd5 b13c 7f69 2fbd
00000210: 4f9c e1bc 6332 09be 9817 6dbc 19f1 34be
00000220: a0db 99bd 97b1 f4bc 20c7 bf3d 31af 84bd
00000230: b994 1cbc 066e 89bd df6d 183d c319 10bd
00000240: 3490 43bd 0b95 963d 748f 0cbe 8fbb 44bd
00000250: 8e64 03bc 9a5e 5d3d d290 6a3d 7f5a bb3d
00000260: 1eaa 15bd de3e 6b3c 9848 c2bd 032f 6abd
00000270: 45dd 06bd 40fe 273d a5eb c7bd 039e c13b
00000280: e906 dcbd bc5f 28be 05a6 653c 8d05 0dbc
00000290: c8a5 5cbe 2807 23bc 218b 15bb 19d1 2b3d
000002a0: 422c 2d3d 7bea 413c ce26 a33d a9c8 cc3a
000002b0: ef07 a6bc 152e b23c 3c26 f53c 74a7 703d
000002c0: ae1d ebbc 1df7 c93b e068 993b 1333 1fbd
000002d0: 5d46 b2bd 0fc7 0abe f395 3e3c af8b bb3d
000002e0: 2bee 833d f27b f3bc c2a8 51be 312a 65bb
000002f0: c571 85be 3a7a 133d 19ca 59bd ab15 b8bd
00000300: f1da 8ebd 19e4 dbbc a30a 163d 6eac 583d
00000310: 95fe d63b e9d2 2a3c e697 df3c 0021 21be
00000320: 2519 913d 2b53 3a3c bca3 433d b290 7cbc
00000330: d969 9dbd 7311 e93b f854 9bbe fb06 493d
00000340: 78cb d33a 2045 893d c2bf 133b 0c3a 973c
00000350: 46da 7b3d 84c6 31bd 4119 9f3c 8009 b53c
00000360: 5eaf 27be 21d3 893d 1be5 1abd 6fdc 84bb
00000370: b65b 993c 9323 01bd 7467 a13c 1d50 16bc
00000380: 789d d4bc 8925 683d 048b 4abd 99fc c7bc
00000390: 4fce 1dbd 91c6 cfbc 279e 35bd 2f2b f23d
000003a0: e222 a2bc a4ba 1e3d 108a ca3b 7fea 543c
000003b0: a8d0 d5bc 144e 4e3d 4ad7 d7bd de0b 86bc
000003c0: 3177 813d 13cd cf3c f94e 20bd 7c0e 573d
000003d0: 4f75 e13c 0f4f eabc cfa0 37bc 1115 b93b
000003e0: 063f 41be 6c17 be3c da95 0abd 619e 863d
000003f0: c826 bcbd a6da 20be 275e 5cbe 1fca be3d
-0.044280447 -0.021835452 -0.051709928 0.03195659 0.012870697 -0.02510182 0.049837824 -0.116495155
0.04134885 0.05660542 -0.011602174 0.0337172 0.014289679 -0.009017496 0.012473083 -0.12810288
0.027493171 0.06429651 0.052947372 -0.12920617 -0.039751418 -0.0141184125 -0.030423947 0.034538306
0.042944897 -0.12305917 -0.007910505 0.032675356 0.01660275 0.041003037 -0.020134563 0.031565454
0.023535406 0.07563139 0.026453715 0.034082692 -0.106098875 -0.05046683 -0.007310835 -0.07197078
0.041220617 0.031140454 0.0040944163 -0.007886433 -0.01483107 -0.064193085 0.00828098 -0.05074445
0.03302808 0.04214931 0.0019724048 0.004427499 -0.046326082 0.027414206 -0.045513354 -0.028060645
-0.20687556 0.016132912 -0.0077564395 0.00069982366 -0.015356356 -0.04311241 -0.029196337 0.039105903
-0.06539718 -0.047772057 0.013206834 0.006406979 -0.0023152216 0.075820856 -0.06887732 0.034281265
-0.014742387 -0.01723606 0.009598137 -0.0740992 0.016866297 -0.1380246 0.02661266 -0.06441006
0.039052825 0.009336231 -0.11260791 -0.011010359 0.048436448 -0.047592193 -0.030727567 -0.024027321
-0.07026877 0.04113682 0.010713519 -0.12932508 -0.08739768 -0.066796035 -0.07602783 -0.06671508
-0.31869048 -0.0059635392 -0.046214815 0.047984265 -0.02749839 0.031034218 -0.06414624 -0.01265424
0.067934185 -0.061422672 0.04392746 0.040213823 0.08568872 -0.0151361255 -0.07944556 0.009521499
-0.034130737 -0.004813265 0.013319626 0.0028182585 -0.06524027 -0.033942807 -0.01576236 -0.12701415
0.002362521 -0.07329437 -0.05168873 -0.038999453 -0.015349019 -0.012209582 0.0002160088 0.010509071
0.03173365 0.025978718 0.021708481 -0.04282522 -0.027540354 -0.13398127 -0.014470957 -0.17670096
-0.07512593 -0.029869838 0.09364152 -0.064787276 -0.009556943 -0.067104384 0.037214156 -0.03518082
-0.047744945 0.073526464 -0.13726598 -0.048030432 -0.00801958 0.054045297 0.057267018 0.0914812
-0.03653919 0.01435825 -0.094865024 -0.05717374 -0.032925863 0.041013956 -0.097617425 0.005908729
-0.107435055 -0.1644277 0.014016633 -0.00860728 -0.21547616 -0.009950437 -0.0022818523 0.041947458
0.042278536 0.01183569 0.07966386 0.0015623766 -0.020267455 0.02175049 0.029925458 0.058753446
-0.028700676 0.0061634914 0.0046816915 -0.038867068 -0.08704827 -0.13552497 0.01163243 0.09157502
0.06441911 -0.029722188 -0.20474532 -0.0034967775 -0.26063362 0.036005236 -0.05317125 -0.08988508
-0.069753535 -0.026842164 0.036631238 0.052898817 0.0065611103 0.010426261 0.02729411 -0.15735245
0.07084874 0.011372368 0.04776357 -0.015415357 -0.076862045 0.007112676 -0.30338264 0.049078923
0.0016158661 0.06702638 0.0022544716 0.018460296 0.06148746 -0.04340221 0.019421222 0.022099257
-0.16375491 0.06729723 -0.03781615 -0.004054598 0.018720489 -0.031528067 0.01970265 -0.009174374
-0.025953993 0.05667642 -0.049448982 -0.02441244 -0.03852683 -0.025363239 -0.04434028 0.11824643
-0.019792024 0.038752213 0.006181009 0.012995361 -0.026100472 0.05036743 -0.1053911 -0.01636308
0.06321562 0.025366342 -0.039137814 0.052504048 0.027521757 -0.028602151 -0.011207773 0.0056482633
-0.18871698 0.023204528 -0.033834316 0.06573177 -0.091870844 -0.15708408 -0.21520291 0.09315895

main.4.bias f4 [256]
00000000: 58ed ddbd 7202 f7bd 49cf e3be 9c7a 38be
00000010: 0359 42be 22fe 993e 1006 84be 4378 093d
00000020: 694f 9bbe 44da 12bd ddd9 08bf 4ec3 b4be
00000030: a146 9fbe 00df 4abe 8859 cebe 1728 4c3e
00000040: 6158 11be 358f eabd a78f 683e fb1a d8bd
00000050: 8a66 20bf 3798 6b3e 3408 de3d c4f4 983e
00000060: ed10 30bd d338 81be ce00 15be 81f0 42be
00000070: 4b4e 67bd bdd2 febe d278 20be 12f5 073d
00000080: 67ea 14be 5d2f 99bb 0ffa 64be 2396 5bbe
00000090: fca5 6bbe 05ba 6ebd 663d 67be f583 353e
000000a0: 7eb5 44bd 8812 b1bd a692 033e 9694 2bbe
000000b0: 317f 4abe bdd0 7bbe a7bd b3be 7947 d3be
000000c0: b9df 02bf 3f4a 44be 1476 c9bd bd87 d1be
000000d0: 35d9 cdbd 3f77 9bbe f7f4 a9be 6de4 78be
000000e0: 906b 31be ba0e bcbd da94 52be 81c9 62be
000000f0: b687 c6be 527b b9bd 20d0 403d 0a8d b2bd
00000100: c55e 20be dcf7 6bbe 66c3 503d c773 383e
00000110: 8144 bcbe fd89 8cbd a72b 9fbe e6f8 21be
00000120: dee8 59be e571 e3bd db7e 07be 7179 94be
00000130: 5d48 afbe 4375 10be c60b 68be 0174 6fbe
00000140: 9e9a 52be 587b 2abd 2e41 d6bd 39a1 2cbf
00000150: ac6b 7abb 1f03 873d 3ce7 7a3d 453d 09be
00000160: ab89 85be 22b4 393e 2b23 42be 8737 c73c
00000170: 758f 3bbe aefd 3bbc 9552 e3be d1fa efbe
00000180: b815 20be 5414 cabc 99f4 b2be 65ef 8d3d
00000190: 2b1b 693e 774a 283e aa63 dfbd c688 f1be
000001a0: 538b aabd eb2c fb3d e3f7 6e3e 3147 f9be
000001b0: d3cf 95be 3653 bcbd 393d 26be 6295 a6bd
000001c0: 39c4 02bf d4b5 edba 769f c4bd 6524 b6be
000001d0: 35b6 03bd 7397 15be 6fed 34be bd47 a93d
000001e0: b594 05bf fa67 163e 014a d23d 2c81 90be
000001f0: 43c3 493e 4b93 4abe 8cf5 10be c8ac 68be
00000200: 0392 9fbe bcf7 80bd 4f1d a1be 8291 3d3e
00000210: 8ad1 84be 2758 04bf e923 f2be 21b1 9fbe
00000220: ed67 c6bd fdd7 dcba ab81 2ebe 03cc 22be
00000230: ab3c 7b3e af5e acbb c7ea 893e ca8f 9abe
00000240: 16d9 bfbe d1d0 0fbf 6656 65be 1148 cbbd
00000250: 63a4 27be 3a2c 9dbe b43e a3be 00f7 833d
00000260: d5df a3be 6dbd e6bd 3242 61be f492 d9bd
00000270: 8ab6 a5be 5935 163d 67b6 2abb 82f0 eebe
00000280: cd18 273d cc37 f9be ffc1 90be 4c80 a8bd
00000290: 791a 26be 8113 0dbe 7c1e 203a 7267 c1bd
000002a0: a7aa c6be 361d c5bd 65ad 1dbd 4249 bcbe
000002b0: 63ca 78be 979f 783e 08e6 b7be f8ca 53be
000002c0: b51e 12bf eafd f8bd 8c70 f0bd f265 c33d
000002d0: 0e1d 96be b4d0 05bd e08e 983e 134a dd3d
000002e0: 4d76 9abe b83a e73d 06fc bbbe d012 5cbe
000002f0: e4d4 9cbd e189 86bd 097d 80bc 46c1 05bf
00000300: 62b1 65be 3a98 00be b592 48be cb00 fdbe
00000310: e28e 8abc 81a6 623e f636 3a3e a01f 0d3e
00000320: 703e 8f3b e9ea a0be e192 09be d3c2 52be
00000330: bd29 d8be e2c1 78be 0aaa 69be 3ead aa3e
00000340: eb91 41be b04c 8bbe 51dc c0bd bd5d 2ebe
00000350: d1da 423e 9320 efbe fa4d 1abe afe3 d0be
00000360: 5f6b 97be c9e5 423d 2887 d9bd 7aee 99bd
00000370: d53a 18bf 63dc b4bd cd08 42be 9206 cdbe
00000380: bca2 2ebf 02e9 3b3d 2160 a53d 3471 43be
00000390: b61b 01be 6644 273e 8b03 4a3e 3e6b 0bbe
000003a0: 4162 eebe 0637 95be ce92 8b3e e892 d7be
000003b0: 9952 0f3d f1d2 e0bd 90e5 84be 19f0 423e
000003c0: 3225 aebd 1bf9 e9be e2c4 2fbe a509 dcbd
000003d0: d95d d53e 0ecd f0be 96c7 a7be cce0 01be
000003e0: 5050 3fbe 6390 35bf 7e07 52be 7d55 043e
000003f0: 3da2 bebd 7d40 20be fee8 d5bd ef8f 80be
-0.10836285 -0.12061013 -0.44494084 -0.18015522 -0.18979268 0.300767 -0.25785875 0.033561956
-0.30334023 -0.035852686 -0.53457433 -0.35305256 -0.31108573 -0.1981163 -0.40302682 0.19937168
-0.1419387 -0.11453096 0.22711049 -0.10552021 -0.6265646 0.23007284 0.10841408 0.2987424
-0.04298489 -0.25238666 -0.14551088 -0.19037057 -0.05647115 -0.49770156 -0.1567109 0.0331927
-0.14542542 -0.0046748356 -0.22361015 -0.21443991 -0.23012537 -0.05828287 -0.22582015 0.17726119
-0.048024647 -0.08646113 0.1284891 -0.167559 -0.19775082 -0.24591346 -0.3510563 -0.41265467
-0.51122624 -0.19168948 -0.09836975 -0.40923873 -0.100511946 -0.30364415 -0.33194706 -0.24305888
-0.17326188 -0.09182496 -0.20564595 -0.2214718 -0.38775414 -0.090567246 0.047073483 -0.08718307
-0.15661152 -0.2304377 0.050967596 0.18012916 -0.36771014 -0.06862257 -0.31087992 -0.15817603
-0.21280238 -0.11105708 -0.13231985 -0.28998902 -0.34234896 -0.14107232 -0.22660741 -0.23384096
-0.20566794 -0.041621536 -0.10461651 -0.67433506 -0.003821115 0.06592392 0.06125568 -0.13402279
-0.26081595 0.18135121 -0.18958728 0.02431847 -0.18316443 -0.011474056 -0.44398943 -0.46871045
-0.15633285 -0.024667896 -0.34952238 0.069304265 0.2276427 0.16434656 -0.10907681 -0.47174662
-0.08327355 0.12264427 0.23336749 -0.48687127 -0.2926012 -0.09195559 -0.16234292 -0.08133961
-0.5108066 -0.0018135854 -0.09600727 -0.35574642 -0.032156188 -0.14608555 -0.17668699 0.08265636
-0.52180034 0.14688101 0.102680214 -0.2822355 0.19703393 -0.1978275 -0.14156169 -0.22722161
-0.31166086 -0.062972516 -0.31467673 0.18512538 -0.25941116 -0.5169701 -0.47293022 -0.31189826
-0.09687791 -0.0016849037 -0.17041652 -0.15898137 0.24534862 -0.0052603106 0.26936933 -0.30187827
-0.3747031 -0.56178004 -0.2239624 -0.09925855 -0.16371302 -0.30697805 -0.31883776 0.06443596
-0.32006708 -0.11266599 -0.21997908 -0.10623732 -0.3236583 0.03667197 -0.0026048662 -0.46667868
0.040795136 -0.48675382 -0.28273007 -0.08227596 -0.16221036 -0.13776971 0.0006108058 -0.09443559
-0.38802072 -0.09624712 -0.03849544 -0.3677464 -0.24295954 0.24279629 -0.35917687 -0.20682895
-0.57078105 -0.12157805 -0.117402166 0.09540929 -0.29319042 -0.032669738 0.29796505 0.10805144
-0.3016838 0.112904966 -0.36715716 -0.21491551 -0.07657793 -0.06569267 -0.015684621 -0.52248037
-0.22430947 -0.1255807 -0.19587214 -0.49414667 -0.016913835 0.22133829 0.18185028 0.13781595
0.004371457 -0.31429222 -0.13434936 -0.20582132 -0.42219344 -0.2429271 -0.22818771 0.33335298
-0.1890332 -0.27206945 -0.09417022 -0.17027946 0.19028784 -0.4670454 -0.15068808 -0.4079871
-0.29574105 0.04758242 -0.10621482 -0.07516189 -0.5946477 -0.08831098 -0.1894867 -0.40044075
-0.6821706 0.04587651 0.08074976 -0.19086152 -0.12608227 0.16334686 0.19727914 -0.13615128
-0.46559337 -0.29143542 0.2726044 -0.42104268 0.03499088 -0.10977734 -0.25956392 0.19036902
-0.08503188 -0.45697865 -0.17164949 -0.10744027 0.41673163 -0.47031444 -0.3276946 -0.1268341
-0.1868298 -0.7092344 -0.2051067 0.12923236 -0.09308288 -0.156496 -0.1044483 -0.25109813

main.6.weight f4 [4, 256]
00000000: f9b7 183a c504 93be c81f 0dbc 8719 b9be
00000010: 9daf 0cbf efd4 0e3f 9a0a 38bd eae3 6dbe
00000020: eb2a 63be 68c2 c33d 4037 72be 8f22 b73b
00000030: 06e1 69bc 5074 ff3d 4a4a f43d e4c9 083f
00000040: 1d4d 423d 56b3 73be c407 96bd b24c 7fbd
00000050: 10df 1a3e 09fe ddbd 0a8e e33d f95b 0f3c
00000060: 7d41 7e3e 8394 ce3d 51f2 173e d8ca 00bf
00000070: 0dd5 b2bd 28d4 9cbe 439a 20bf 9fc4 8bbc
00000080: d01f d23c dff0 9c3e 9ba3 f1bd 3edc 86be
00000090: 7bc1 923b f4dd a1bd fd4d 89bd f317 773e
000000a0: ddbd e8bc ce44 f3bc 3398 f13d 1d4e c63c
000000b0: 7857 b33d 3540 b43b cd24 9a3c 69b7 fdbd
000000c0: 7a10 3ebd e6af 18be 3524 9dbd 57fc 00bf
000000d0: 4c2b 7ebd 2747 243e 424a 423d 93d9 793e
000000e0: 17dc 043e 757f b8bc 6c50 4dbd f82f 0a3e
000000f0: 91b0 22bc 9547 97be b94a ddbd 0bb3 c4be
00000100: ad50 0bbe ad9c bf3e c519 c5be 0f6a 55bd
00000110: 555a 07be 56e0 113d 1591 ec3d 387e e03d
00000120: 7326 1bbe 0950 593d 9d76 b53d 260c 48bd
00000130: 720d 6f3e bf47 f33e 2d98 b93d b67a 21bf
00000140: 4535 463c 669d a9bc faf0 d3bd 9dc8 b8be
00000150: 5b6e b2be a6ae 0cbe b628 acbd 1c30 6d3d
00000160: 52b2 9abe fc66 893e 9395 68bd ac8e 833d
00000170: 46cf 0ebd 3d26 243d 203a be3d f900 e4be
00000180: 18c8 813d de37 a7bc fe62 35be 063d 86be
00000190: 7978 a83e 5e52 873e d5d2 8cbc b239 373e
000001a0: 61da 8f3c b4fc 9cbc cad3 9b3e fad8 cebd
000001b0: 5a8b b0bd d7ca 6abd 3d2a 743c 1994 f4bc
000001c0: 6bda 00be e864 14be 991a 6f3a 5362 aabe
000001d0: 7139 16bd 5581 27bd 70f1 e5bc 12e8 3e3e
000001e0: 778c ee3d 5677 6bbd d2a7 32be d480 a5bd
000001f0: 04ef 813b be54 b0bd 5f1f 3c3d c0a2 353d
00000200: 4855 00be f38e 813c 10c0 a1bd 7371 a43e
00000210: 90cc a3be 5f02 cdbd a3e9 2abe 2eb6 1cbd
00000220: ffdb a43d a004 c43e eccc 10bf ed14 9bbd
00000230: c1de 9fbd 3b0f 973d de01 703e f2b1 5e3e
00000240: 4c60 20be 4205 30bf 3bf6 0d3e 03db 1fbe
00000250: 4493 38be d3f3 be3e dfd2 febd bdee 5dbd
00000260: def8 8cbe 38db 8fbb a2ec 41b9 e34f 1bbe
00000270: 0f0d 72be 8d43 bc3d d35b 7e3e c04b 83bd
00000280: 0b54 753b 4584 82be 1fa9 c8bd 1cb5 623c
00000290: ac93 c8bc 7732 eebc 5852 0f3d 36fc a7bc
000002a0: 876c 143e 0f18 71bc 3a77 523e b06a 30be
000002b0: aeed b23d bb98 6fbe 7326 17be eef5 20be
000002c0: e054 72be 8d41 373b 0d99 37be a80c 1fb9
000002d0: 5f51 5abd 7007 9ebe 2906 973e 7a49 e5bd
000002e0: 1c02 98be 8af2 f63e 7f75 1ebe 02d5 343d
000002f0: 1ef1 83be f947 9c3d 5428 f4bd 5aaf a2be
00000300: 4e0a 05bd e458 b0bd 2524 d2be 1229 8dbc
00000310: 06ac 0ebd af8e 6b3c 687e 893e 1eb3 473e
00000320: 1733 01be 71e6 3c3e 0fe4 643d b345 d2bd
00000330: ffbd 6abc c399 b1bc 25e1 ef3d f64a 1b3e
00000340: ec40 34be ecea 0dbd 163f d83c dd19 1a3d
00000350: 5415 b23e fe7d cfbe 9bc1 133e 79a0 35be
00000360: 95b1 10bd c845 7cbc 4016 b2be db26 ccbc
00000370: ad97 83be 0758 9a3e cdc5 b3bc d096 81be
00000380: 7130 75be a4db df3c 6cdb 293e 6fe2 e5bd
00000390: 9d1d 10bd 8540 76bc 5f36 463d dbcd 493d
000003a0: 8e95 3ebe c960 e63d 0936 bd3e 8662 68be
000003b0: efb4 9cbd f484 063c c75e d8bd 8773 a83e
000003c0: 4f1e e93d 9ba9 c93d c45f 8a3d 0faa c03b
000003d0: f9f9 903e 5b0d 65bc 6c9a 0b3e 686d 84bd
000003e0: e430 9bbc df28 a8be 6a80 9b3e 240d b9bb
000003f0: 047d ff3a 3554 873d 33a9 f8bd 8bde 31bd
0.0005825754 -0.28714576 -0.008613534 -0.36152288 -0.54955465 0.5579366 -0.044931985 -0.23231474
-0.2218434 0.095585644 -0.23653889 0.0055888365 -0.014274841 0.12473357 0.11928232 0.5343306
0.047436822 -0.2379888 -0.073257 -0.062329 0.15124154 -0.10839469 0.11111076 0.008749955
0.2482967 0.1008692 0.1483853 -0.50309515 -0.087320425 -0.30630612 -0.62735385 -0.01706153
0.025649935 0.3065252 -0.117987834 -0.26339906 0.004478631 -0.07903662 -0.06704328 0.2413023
-0.028410846 -0.029695895 0.11796608 0.02420717 0.08756918 0.005500818 0.018816376 -0.12388498
-0.046402432 -0.1491085 -0.076729216 -0.5038504 -0.06205301 0.16042767 0.0474341 0.24399404
0.12974583 -0.022521714 -0.050125524 0.13494861 -0.009929792 -0.295468 -0.10805268 -0.3841785
-0.13604994 0.37424222 -0.38496223 -0.0521031 -0.13218053 0.035614334 0.1155111 0.10961574
-0.15151386 0.053054843 0.08860514 -0.04883971 0.23344973 0.47515675 0.09062228 -0.6307787
0.012097661 -0.020704936 -0.10348697 -0.36090556 -0.3484982 -0.13738498 -0.084062025 0.05790721
-0.30214173 0.26836383 -0.05678327 0.06423697 -0.03486564 0.04007553 0.0928843 -0.44531992
0.06336993 -0.020412382 -0.17713544 -0.26218432 0.32904413 0.2643003 -0.017190376 0.17893103
0.017560186 -0.019163467 0.3043502 -0.10099979 -0.08620329 -0.05732235 0.0149026485 -0.029855775
-0.1258332 -0.14491618 0.000912109 -0.3327814 -0.036675874 -0.040894825 -0.028069228 0.18643215
0.11647885 -0.057486854 -0.17446831 -0.08081213 0.0039652605 -0.08609913 0.045928355 0.044344664
-0.12532532 0.015815234 -0.07897961 0.32117805 -0.31992006 -0.10010218 -0.16690688 -0.038259678
0.080497734 0.3828478 -0.56562686 -0.07572351 -0.07806159 0.07375952 0.23438212 0.21747568
-0.15661734 -0.6875802 0.1386346 -0.1561089 -0.18024927 0.37295398 -0.12442564 -0.054182757
-0.2753362 -0.0043901466 -0.00018494067 -0.15167193 -0.23637794 0.09192572 0.24839716 -0.064109325
0.0037434127 -0.2549154 -0.09797882 0.013837125 -0.024484478 -0.029076798 0.03499064 -0.020506006
0.14494525 -0.014715209 0.20553294 -0.17228198 0.0873674 -0.23398106 -0.14760761 -0.15718815
-0.2366519 0.0027962655 -0.17929478 -0.00015168136 -0.053300258 -0.3086505 0.29496887 -0.11195655
-0.2968911 0.48231918 -0.15474509 0.044148453 -0.25769895 0.07630915 -0.119217545 -0.31774408
-0.03248053 -0.086107045 -0.410432 -0.017231498 -0.034832023 0.01437728 0.26854253 0.19501922
-0.12617145 0.18447281 0.055881556 -0.102672 -0.014327525 -0.021679765 0.11712865 0.15165314
-0.1760289 -0.034647867 0.02639727 0.03762232 0.34781897 -0.40525812 0.14429323 -0.17736997
-0.035325605 -0.0153974965 -0.347826 -0.024920871 -0.25701657 0.30145285 -0.021944905 -0.25310373
-0.2394426 0.027326412 0.16587609 -0.112248294 -0.03518449 -0.015030031 0.048391696 0.049268585
-0.18611738 0.11248929 0.36955288 -0.22693834 -0.07651698 0.008210409 -0.10564952 0.3290064
0.11382734 0.09846803 0.06756547 0.0058796476 0.28315714 -0.013980235 0.13633126 -0.0646618
-0.018944211 -0.32843682 0.3037141 -0.0056473184 0.0019492214 0.06607858 -0.12141647 -0.043425124

main.6.bias f4 [4]
00000000: cde6 373e 03ce 923d e080 7fbd 6c05 00bd
0.17959137 0.071682 -0.062378764 -0.03125517
