models/ppo/BipedalWalker-v3/ppo_critic.pth (torch, 555821 bytes, 7 tensors)

main.0.weight f4 [256, 24]
00000000: b635 d6bd 06ea 1f3e 9d42 573e 0480 ab3e
00000010: b15d 29be 4102 4c3e 2ac9 003e d82d 923e
00000020: dd49 56be 9340 f1be 2c49 aa3e 1820 26be
00000030: 3e5d 393e bcb8 88be 7d68 573e 0feb a53e
00000040: bf6a 8f3e 562a 5f3d 7f96 04bf 62a0 20bf
00000050: 9e22 6abf f2d7 07bf 006d 78be 8dae ddbc
00000060: 8e00 28be 3202 f3bd 434a 47be bdbf 02bd
00000070: 78f5 b23e 58da bf3b 0258 5f3d d704 d73c
00000080: d892 13be de44 073d 4315 413e 509d 2e3e
00000090: 68e5 8b3b 3256 883d fab6 2abe 4c3b eebe
000000a0: 31a1 5ebe ad3e 09be cc5e 80be 0776 01bf
000000b0: c1f1 c8be f1ee 9fbe c64d 22be 8f9c 86be
000000c0: 5c4e dc3d 7c39 293f 9568 bfbe 1c7f 033f
000000d0: 0220 c03e 3073 adbe 600f bbbe 1204 97be
000000e0: 034c 2fbe 0cb3 363e 9bc7 36be 3111 ccbd
000000f0: 7181 5abd f391 483e 995c 16bf d82a bebe
00000100: 9023 36bf 22d3 8fbe 0b8b 2abe 2dc9 fcbe
00000110: aa64 0bbf e8bc babe a0bf ccbe 7b80 29be
00000120: f09c fb3e 0cc3 723f 75a0 4d3f 6586 833d
00000130: 5c7c 383e baf0 0d3f 4f3c 92be dc95 313e
00000140: 0277 48be fc85 233d 265b 3dbe e7c4 713e
00000150: f2b5 79bd 0c3f 063e 46b8 21be 96b2 75be
00000160: 8d0d ee3c 764f 813d 5423 a4be 8eae 07bf
00000170: 9109 2bbf 4ea5 49bf 1098 99be e50a aebc
00000180: c60f 933f c14a 1140 ad40 8fbf 6552 0abf
00000190: 5117 8f3e f9ba 243e 5dc1 7e3c e601 d73d
000001a0: 3a86 8bbe 9f9e fc3e 6115 1cbd 388e 0ebe
000001b0: 6a4d dc3e 2c06 293c 9ca3 ca3e 2744 df3d
000001c0: c539 babe 2674 ddbe b1da 08bf 3d82 ddbe
000001d0: 1a6d 80be caa3 5bbe caed 48be f1a7 893d
000001e0: 8a8f 433f e4c5 8640 951c d13c 877f b43f
000001f0: 189e 043e 4f3a bd3d 8ed1 803d dd83 553d
00000200: e54e 883e 6eb9 033f b42b 543e 573b 20bf
00000210: 87fc 133d 3c10 423e 35c0 ba3e 18c9 f43d
00000220: 5a2a afbe 0163 d6be 08b4 e8bd 4cee 803e
00000230: 9a8c 2d3f 6c01 e33e 5885 9c3e 37f3 b13d
00000240: 139a 243d 6d3a 473e 6398 ae3d 7134 163f
00000250: 86ea 2ebd e2af e7be ec57 0ebd 2f40 8ebe
00000260: 0a7b 11be 92b6 e6bd 0d8a a13e 433b 3a3e
00000270: a034 163e 2d12 273d 63c7 533e 2ce8 783d
00000280: 3c7f 48bd 9577 96be 58a0 78be 2fa8 3abf
00000290: a489 61bf a710 51bf 910c fcbe c179 94be
000002a0: 7b1e 2ebd dc05 0abe 2c47 a23d b33a 26be
000002b0: fb2a b73d 2fc5 193b d586 82bd 8332 cbbd
000002c0: 6487 5fbc bfc0 b13d d467 d23d 076c fdbb
000002d0: b3a5 903c 7b5b 6dbd 6f16 94be 39fd c1be
000002e0: 3c96 2cbe 69f6 d8be 9dcc fcbd d71d 03be
000002f0: 037b 7fbe c9e2 09bc 0bc2 fdbd bf4d 42be
00000300: 3787 bbbe e698 f2be 8cd2 9fbe 07aa 033f
00000310: 0d0d 053f 0248 893e 57bf 873d f919 a93e
00000320: 12fa c43b 596f 9cbe d905 913e 469d 14bf
00000330: 0914 883e 77f4 57bd e9ca 853c 1f6b 87bc
00000340: 7247 77be daa7 76be 681c ccbe ca3a 30bf
00000350: 2d40 c6be 38c8 cdbe 0fb4 65be 2871 43bd
00000360: 04a7 bfbd b938 ac3e 9108 24bc 89eb 073e
00000370: 919b b33e 91c5 2dbe 6ee9 d6bd a874 013e
00000380: f050 dbbe 9fbb 31be e734 113e c3fe 163e
00000390: 2341 4a3d 555a 10be 8204 75be c0cb 82be
000003a0: 73aa 94bd 49d5 d0bd 6394 b2be 1ef5 0abf
000003b0: 78b6 09bf 12d0 03bf 5c33 34be 7e6f c4bd
000003c0: e549 a2be 6aa9 6cbf bf52 9d3e b476 22bf
000003d0: 9d52 95bd ae67 d4bc 906d d53d 49e5 02bd
000003e0: bb8f 7d3d f9bb cfbe 2bb8 87bd 6258 58bd
000003f0: 68a1 c03c dbd7 f1bd 1f24 593e fa26 ed3e
-0.10459463 0.15616617 0.21021505 0.33496106 -0.16539647 0.19922735 0.12576738 0.285506
-0.20926614 -0.4711958 0.3325895 -0.1622318 0.18101975 -0.2670344 0.21035953 0.32405898
0.28011128 0.054483734 -0.5179214 -0.62744725 -0.9145907 -0.5306388 -0.2426033 -0.027060771
-0.16406462 -0.11865653 -0.19461922 -0.031921137 0.34952903 0.005854886 0.05452729 0.026247425
-0.14411485 0.03302466 0.18855767 0.17052197 0.0042692907 0.066570655 -0.16671363 -0.46529615
-0.21741177 -0.13402815 -0.25072324 -0.5057072 -0.39246944 -0.31236985 -0.1584998 -0.2629132
0.10757133 0.6610334 -0.37384477 0.5136583 0.3752442 -0.33876944 -0.36535168 -0.29495293
-0.1711884 0.17841738 -0.17849581 -0.099642165 -0.0533461 0.19586925 -0.5873504 -0.37142062
-0.71148014 -0.2809077 -0.16654603 -0.49372235 -0.54450476 -0.3647225 -0.39989948 -0.16552918
0.4914317 0.9482887 0.80322963 0.06422118 0.1801619 0.55445445 -0.28561637 0.17342323
-0.19576648 0.0399227 -0.18491802 0.23610269 -0.060964532 0.13109988 -0.15792951 -0.23993906
0.029059196 0.06313984 -0.32058203 -0.53000724 -0.6681147 -0.7876786 -0.29998827 -0.02124543
1.1489189 2.2701876 -1.1191612 -0.54031974 0.27947477 0.1608695 0.015549031 0.10498409
-0.27250844 0.49339768 -0.038106326 -0.1392144 0.43027812 0.010316413 0.3957795 0.10901671
-0.363722 -0.43252677 -0.53458697 -0.43263426 -0.25083238 -0.214492 -0.1962196 0.067214854
0.763909 4.2116566 0.025526324 1.4101418 0.12950933 0.09239637 0.062899694 0.052127708
0.26622692 0.5145482 0.20719796 -0.62590545 0.0361295 0.18951505 0.36474767 0.11952418
-0.34212 -0.4187241 -0.11362463 0.25181806 0.67792666 0.44337022 0.30570483 0.08688968
0.040186 0.19455881 0.08525159 0.5867377 -0.042704128 -0.45251375 -0.034751818 -0.27783343
-0.14207092 -0.11265291 0.31550637 0.18186669 0.14668512 0.04078882 0.20681529 0.06076829
-0.048949465 -0.2938811 -0.24279916 -0.7291288 -0.8810065 -0.81666034 -0.49228337 -0.2899914
-0.042509537 -0.13478798 0.07923731 -0.1623333 0.08943745 0.0023463478 -0.063733734 -0.09921744
-0.0136431195 0.086793415 0.1027371 -0.007733825 0.017657137 -0.05794857 -0.28923365 -0.37888506
-0.16854185 -0.42375496 -0.123437144 -0.12804352 -0.24949269 -0.008415886 -0.123905264 -0.1897497
-0.36626598 -0.47382277 -0.31215322 0.51431316 0.5197304 0.2681275 0.06628292 0.33027628
0.006011256 -0.30553702 0.28324774 -0.5805248 0.26577786 -0.052723374 0.016332107 -0.016530572
-0.24148348 -0.24087468 -0.39865422 -0.68839705 -0.38720837 -0.40191817 -0.22431968 -0.047715336
-0.093580276 0.33637026 -0.010011808 0.13273443 0.35079625 -0.16969897 -0.10493742 0.12642157
-0.42835188 -0.17356728 0.14180337 0.14745621 0.049378525 -0.14096959 -0.23927501 -0.25546074
-0.07259073 -0.10196931 -0.34878835 -0.5428027 -0.5379405 -0.51489365 -0.17597717 -0.09591578
-0.31697002 -0.92446005 0.30727193 -0.63462377 -0.07291148 -0.025928345 0.10421288 -0.031956945
0.06190465 -0.405731 -0.06626924 -0.052818663 0.023514464 -0.11808749 0.21205185 0.463188

main.0.bias f4 [256]
00000000: 9f56 9e3e 1aa0 efbe d891 50be 5143 1c3e
00000010: 0284 20be 4ae8 01be 6acc 6cbd e031 44be
00000020: be7b aabd d15c ebbd 8894 053f 8af5 b5bd
00000030: 3a9c b1be 48e6 6abe b41b 8f3e 248a aabe
00000040: 146b 26be c648 c8be 5b52 2e3d c226 2bbe
00000050: 4690 32bf 1867 76be eecd c3be 092a 1bbe
00000060: cb27 b83e 8dba 453e 8f11 9fbe 148a 43bd
00000070: ddd1 3bbe 9dcb 73be 4446 4a3e 907c 77bd
00000080: f65b 8fbd 8793 3d3e 6ce2 e33e 97ba 86be
00000090: a937 a6be c509 5c3c 1acf 58bd fa99 86be
000000a0: ea64 a1be a55c 86be d3e6 3dbe 6946 ac3b
000000b0: 46ef 2ebe 141e bfbd 010c 3fbe 6168 03bf
000000c0: ab2c ab3e de78 9cbd 0240 9fbe 5891 72be
000000d0: 02d1 7bbe f299 fdbe 448d b33e 06de 9ebe
000000e0: 0499 3cbe 92f0 98be 0a54 e3bd 4deb 3dbe
000000f0: 81ad 5dbe 944d 96bd 1f73 a4bd fda6 b3be
00000100: 076d 0bbe e016 d83e 1571 a2be 5b36 c5bb
00000110: a6aa 12be 8624 a6be 2998 6fbe bb25 cabd
00000120: 6b88 26be 4950 723e 849c 1a3f 1579 903d
00000130: 2d7d b7bd 8589 e63c d207 233f 3356 a8bc
00000140: 5455 b3be 56a5 33bd 7bd9 1bbe f995 773e
00000150: 6f38 c63d c219 7abe 0112 4abe c7a1 3abd
00000160: f06f 48bf cd9a 50be 9b34 b7bd 857b f3be
00000170: 5649 4f3d eb39 9abe 9a1e b13e e896 c3be
00000180: 0d09 94be 1e0e 5fbe ef6c b6be 7c2f 5cbf
00000190: 1abe 10be 083d 50be c638 6a3e d7f8 bb3d
000001a0: 1d12 b4be 6e9c 55be 65d5 35be 1f09 a4be
000001b0: 6610 7dbe 2312 a3be d9ee ecbd 4126 dcbd
000001c0: c73a bebe 3d29 ddbe c091 c1be c577 09bd
000001d0: 277e 3bbf b310 10bd 158c 29be 788e 79be
000001e0: 93cc 12be 3464 c43e d887 b73e cedf e8bd
000001f0: ead4 653c 79f3 febc 652a 3abe 135f 84be
00000200: 6141 b9be 9c96 043f 94a1 fa3e 4dc0 35be
00000210: a842 cdbd c734 6dbd f9bb 14be 11da 3ebe
00000220: 0c1b a0bd 2793 333d 68f9 94be ae76 21be
00000230: 195e 0e3f 4309 d3bd ca8c a3be ffc3 053e
00000240: 6e6d fd3e 16dc 84bf ac77 c6bd dd4c c83e
00000250: d369 80be 8245 7ebe 54a8 d2bd d367 193f
00000260: 5817 d73e b70c 71bd 62b0 7fbe b471 59be
00000270: 28f9 29bf 65b2 6fbe a528 91be 3025 1fbe
00000280: f234 34bd 4060 663c f713 33be 7dd1 37be
00000290: d805 623b d593 59be 233e a2be 2de2 643c
000002a0: e175 dabe 211a bbbe 3fde 85be e7ad 39be
000002b0: 12ed 40be 5560 bd3e fbac 68be d3cc 90be
000002c0: ec88 7d3b 0a8a 0abe 4320 95be 25d4 063e
000002d0: 3101 2bba 5c7c 90be 7f78 c33e 0930 3ebe
000002e0: 9ab8 3dbe f9d7 adbe ce38 17bf 0bcf f3be
000002f0: 942b bbbe 96f7 31be 10be 0abf 0fe6 7ebe
00000300: bfdb 73be 40aa 743e ae19 00be 732d 093e
00000310: b5d6 93be 0e05 133d abf1 863e c17e dabc
00000320: 2dc5 a4be d591 42be 2d84 84be 71ed 3ebe
00000330: 4a4c b63d 06d2 a8bc 2377 363d 8ae0 54bf
00000340: 6c6c a63e 7c7e e3be ac29 b1be fa6c 31be
00000350: 4bbe 73bc 55a7 dbbe d76f b3be 87c9 8ebe
00000360: d023 dabe bb06 4cbe b847 acbe e03c 3ebe
00000370: de47 14bd 4b84 3dbd 3811 b0be 6272 1dbe
00000380: 7aa7 d53c 9e1d 8fbd 6cf2 b1bc a103 043f
00000390: 5bfb 79be 0050 9bbd a71f 8ebe c95d bbbd
000003a0: 1309 26be 021f 76bd 3117 103e 9367 ecbe
000003b0: e40f 05be fd12 433e 7de6 d8be 57c0 173e
000003c0: 0e67 a7be 7159 adbe 433c e53c 0365 e53e
000003d0: 0d79 82bd 1797 693e cb92 dbbe c4e0 7a3d
000003e0: 6194 9bbd 8afd a9be 16ed 1dbe c340 00be
000003f0: c271 283f 2ad1 a1be c7fd 353e 714d 6f3d
0.30925462 -0.46801835 -0.20368135 0.15260054 -0.15675357 -0.12686267 -0.057812132 -0.19159651
-0.08324383 -0.11492313 0.52179766 -0.088847235 -0.34689504 -0.22939408 0.27950823 -0.33308518
-0.16251785 -0.39118022 0.04255901 -0.16714004 -0.69751394 -0.24062765 -0.3824305 -0.15152754
0.3596786 0.19309445 -0.31068084 -0.047739103 -0.18341775 -0.23808141 0.19753367 -0.060421526
-0.06999962 0.18513308 0.44508684 -0.26314232 -0.3246434 0.013430064 -0.052931882 -0.2628935
-0.31522304 -0.26242557 -0.18545084 0.005257417 -0.17083463 -0.09331909 -0.18656923 -0.51331145
0.33432516 -0.07640241 -0.31103522 -0.23688257 -0.24591449 -0.49531513 0.35068715 -0.31028765
-0.18417746 -0.2987104 -0.111000136 -0.18546791 -0.21648218 -0.073390156 -0.0802977 -0.3508834
-0.1361581 0.42204952 -0.317269 -0.0060184426 -0.1432291 -0.3244974 -0.23397888 -0.09870478
-0.16262977 0.23663439 0.60395074 0.070543446 -0.08959422 0.028141746 0.6368381 -0.020548915
-0.35026038 -0.04385885 -0.15219681 0.24178304 0.096787326 -0.24423888 -0.1973343 -0.04556444
-0.78295803 -0.20371552 -0.089455806 -0.47555175 0.050607048 -0.30122313 0.3459366 -0.3820107
-0.28913155 -0.21782729 -0.35629985 -0.86009955 -0.14135018 -0.20335782 0.2287322 0.09178322
-0.3517007 -0.20860454 -0.17757185 -0.3203821 -0.24713287 -0.31849775 -0.11568994 -0.10749484
-0.3715422 -0.43195525 -0.3780651 -0.033561487 -0.7323937 -0.035172176 -0.16557343 -0.24370754
-0.14335851 0.383577 0.35845828 -0.11370812 0.014027813 -0.031121956 -0.18180235 -0.25853786
-0.36182693 0.5179231 0.489514 -0.17749138 -0.10022479 -0.05791166 -0.14524831 -0.18637873
-0.07817659 0.043841507 -0.29096532 -0.15767929 0.5561233 -0.10304501 -0.3194335 0.13063048
0.4949755 -1.0379665 -0.09690794 0.39121142 -0.25080737 -0.24831203 -0.10286012 0.5992405
0.42009997 -0.058850016 -0.24969628 -0.2123478 -0.6639581 -0.23407896 -0.28351322 -0.1554153
-0.043995805 0.014061034 -0.17488085 -0.17951007 0.0034488346 -0.212478 -0.31688032 0.01396994
-0.4266806 -0.36543372 -0.26146123 -0.18132745 -0.18840435 0.36987558 -0.22722237 -0.28281268
0.0038686348 -0.1352922 -0.29126176 0.13166864 -0.000652331 -0.2821988 0.3817787 -0.18573011
-0.18527451 -0.33953837 -0.5907105 -0.476189 -0.36556685 -0.17379603 -0.5419626 -0.24892448
-0.23814295 0.2389307 -0.12509796 0.13396244 -0.28874746 0.035893492 0.26356253 -0.02667177
-0.32181683 -0.19000943 -0.25882092 -0.18645264 0.0890127 -0.02060796 0.04454721 -0.8315512
0.32504594 -0.44432437 -0.34602106 -0.17326728 -0.014876912 -0.42901102 -0.35046265 -0.27888128
-0.42605448 -0.19924442 -0.33648467 -0.1857791 -0.03620135 -0.046268743 -0.34388137 -0.15375665
0.026080836 -0.06988071 -0.021722041 0.5156804 -0.24412291 -0.07583618 -0.27758524 -0.091487475
-0.16214399 -0.060088165 0.14071347 -0.4617277 -0.12994343 0.19050212 -0.4236335 0.14819466
-0.32695812 -0.338573 0.027982837 0.44803628 -0.06370745 0.22811542 -0.42885432 0.06124951
-0.075966604 -0.33201247 -0.15422472 -0.12524705 0.6579858 -0.31604892 0.1777259 0.058423463

main.2.weight f4 [256, 256]
00000000: fcf2 5b3e e84e d9bd f611 433e 4484 f23d
00000010: 0a78 9dbe ab5c 95be f84b 273e 08fb 4abd
00000020: 3e0b 7ebd 9f96 d23d 4305 983d cc10 343f
00000030: 5a39 693e 3a82 91bf 3edc 843b ca46 14be
00000040: 3e51 8e3e 6e16 a13d 9b8d 3e3e fd23 8cbd
00000050: d81c 13bf 5c3c 1b3e 35ed 3cbe 464b 3a3c
00000060: 1972 cbbe 1000 0fbd 24b9 d3bd 5d64 b2bd
00000070: add9 86bd 2418 bc3d a3f4 073d b3da 253e
00000080: 144d 8e3c ac5b e9bb 44dc 67bd 824d 79bd
00000090: a095 65bd e1de df3d aa05 923e 1217 323e
000000a0: b8c8 913b 7266 9fbe b3dd 813d 15c3 d43d
000000b0: ad05 f23d 73e7 85be 46b9 26ba 907c 953d
000000c0: 4ef8 253f e097 90bd 3631 d4be 0d3d 653d
000000d0: 0424 083e 096e eb3c 3467 a4bc aca0 45bd
000000e0: 2c0e 343d 13bd 87be ceb0 a23d 40c5 45be
000000f0: 25d2 dc3c 3126 9dbe 6a7e 70bd 3d32 0abc
00000100: fe1d f13b 0c95 b63c aa14 893d e10b 14be
00000110: 698a 2d3c c276 353d f2f4 a2ba 0df5 c2bd
00000120: 95ba 14be 94df 49bf 7d51 76bd a083 3c3e
00000130: df55 02be c420 e9bd b1e5 433e 3b56 033d
00000140: a180 6abf 3015 00bd fd65 b13d 2ace 663d
00000150: a9f7 1e3e 1d8c 3bbf 438c 22bd ce7f 91be
00000160: 73ff 143f 17b6 f5bd b991 663e cc74 94be
00000170: 6950 d3bd e06a 19bc c29f b03d 4a28 293d
00000180: 1dad 553d 0cdc 83be 87f2 c1bc aca0 78bf
00000190: ce77 4fbd d371 17bd a97b fabe d422 cd3e
000001a0: fd83 163e 33cb 693e 9d55 35bd 9650 903d
000001b0: f03c cd3d ac45 b5bd 87f0 8fbe f537 fabe
000001c0: b80c 1b3e 9259 9c3c 79af 35bd 02dc acbc
000001d0: b749 a0bf 4373 98bf 223c 9fbe 31fe d2be
000001e0: 7dae 3bbd d46c 91bd d280 35bf eb0d 4f3d
000001f0: 0d59 9d3e e6e7 433e 99cc 81be 883d 5dbd
00000200: 5eb9 8c3c 9964 e53e a893 703f 33df 833d
00000210: 9308 5ebe dc55 4ebe 53b6 b63d 741b 9ebd
00000220: 21b3 c2bd 10d9 343e be8b 0e3e 3ee1 10be
00000230: 758d 39bc ddf3 02be 5a8c 50be 96d7 39bf
00000240: e062 0b3e e8eb efbe a149 22be 681d 5e3c
00000250: 56c3 02bd 6933 39be e1b1 2c3d deb6 e73d
00000260: 711f e6bd 6c34 bcbe 27af f7be ae26 6a3d
00000270: 88ed b3be 0802 8e3c 70fb acbd e209 7a3c
00000280: b429 c53d 1637 16be c6e4 223e 3d2b 55bd
00000290: e11a 8bbf 84b7 c03d 6ec1 c93b 8f34 06bf
000002a0: 7371 47be 9c1c 093c 96e9 f0bd cdc9 cb3d
000002b0: 311e f93e 0a03 94be c804 c4bc 1d2e 61bd
000002c0: ee9f 5bbe 97b1 c53d 0dee 12be b58d 97bd
000002d0: 99e1 203d 02ae 4f3d bc3a 9e3e fb49 d1bc
000002e0: fa3d 843c 25b6 063d 5940 85be cc51 6d3e
000002f0: 3bdb 1fbd 3f2c 7fbd 7b5a ae3c 8aca 633e
00000300: d557 d0bc ebd7 50be 47db 99bd 64c2 84be
00000310: fc6a 8cbd d784 2abe 446e bd3f 18ba b3bd
00000320: a491 4dbd 70d7 213e befc fa3d b51d 1fbe
00000330: a758 15bd b5af 0cbe b5ea 92be c76d b9bb
00000340: d911 e7bd 25f7 7dbe 3530 c83c 0812 2b3e
00000350: e43f 1cbd 576c 9dbc c77a 37bf ca33 c5bd
00000360: f2bb d8be cc3c 953b 1b29 e2bd 8dcd 433e
00000370: b56a cabd 3528 9a3d 90b2 4d3d 70f1 a93d
00000380: 8f57 f6bd fc0b 83bf 6685 523b 51b8 c13c
00000390: c1ca d4bd 9f1d 0fbf 2627 9ebd b35f 90bd
000003a0: ff85 3cbd 0333 b93d ac3b 0bbf 7766 83be
000003b0: 3c4d 12be deb9 afbb dc42 9fbc 1ae4 81bc
000003c0: 1ecf 9d3c 864f 84bc 453f b9be 824f 5f3d
000003d0: bb4a b5bd 6ffa d1bf 44cc 18bd c1af 62be
000003e0: 324d a2bd 31f2 f9bd 7496 153f 9b10 07be
000003f0: 1870 8a3e 41f5 66be 1be9 12be c980 aebd
0.2147941 -0.10610753 0.1904982 0.11841634 -0.30755645 -0.29172263 0.16337574 -0.04955581
-0.06202244 0.10282635 0.074228786 0.7033813 0.22775784 -1.1367867 0.004054575 -0.14480129
0.27796358 0.07865606 0.18608706 -0.06842802 -0.5746589 0.15159744 -0.18449862 0.011370486
-0.39735487 -0.03491217 -0.10338047 -0.08710549 -0.06584487 0.09184292 0.033192288 0.16196708
0.017370738 -0.007121524 -0.056606546 -0.060864933 -0.056050897 0.10931183 0.28519946 0.17391613
0.0044489764 -0.31132847 0.06341114 0.103887714 0.11817489 -0.26153144 -0.00063600054 0.07299149
0.6483201 -0.07060218 -0.41443795 0.055966426 0.13294989 0.028738992 -0.020068742 -0.04824893
0.043958828 -0.2651144 0.07943879 -0.19313526 0.026955673 -0.306932 -0.058714308 -0.008434829
0.0073583117 0.022287868 0.066933945 -0.14457656 0.010592082 0.04430271 -0.0012432619 -0.09519396
-0.145243 -0.7885678 -0.060136307 0.18409586 -0.1272807 -0.11383203 0.19130589 0.032064658
-0.9160252 -0.031270206 0.08662031 0.056348957 0.15524162 -0.7326067 -0.039684545 -0.2841782
0.58202285 -0.119976215 0.22516526 -0.2899536 -0.103180714 -0.00936386 0.086242214 0.04129819
0.052167047 -0.2575382 -0.023675216 -0.97120166 -0.050651364 -0.036973786 -0.4892247 0.40065634
0.14698787 0.2283142 -0.0442711 0.070466205 0.100213885 -0.088511795 -0.28113195 -0.48870817
0.1514157 0.01908568 -0.044356797 -0.021101002 -1.2522496 -1.1910175 -0.31100565 -0.41209558
-0.045820702 -0.071008354 -0.7089969 0.050550383 0.30732003 0.19131431 -0.25351408 -0.05401376
0.017178234 0.44803312 0.93975306 0.06439056 -0.21682958 -0.2014994 0.08921494 -0.0772008
-0.095068224 0.17660928 0.13920495 -0.14148423 -0.01132523 -0.12788339 -0.2036604 -0.72594583
0.13611937 -0.4685967 -0.158484 0.013556816 -0.031924568 -0.18086018 0.042161826 0.11314176
-0.11236466 -0.36758745 -0.48375818 0.057165794 -0.3514216 0.017334953 -0.084463954 0.015261145
0.09627095 -0.14669451 0.15907583 -0.05204319 -1.0867578 0.09410003 0.006157092 -0.5242395
-0.19476871 0.008368637 -0.11763303 0.099506 0.48655847 -0.2890857 -0.023928061 -0.054975618
-0.21447727 0.09653013 -0.14348622 -0.07400075 0.039277647 0.050703056 0.30904186 -0.025547972
0.016142834 0.03288855 -0.26025656 0.23175734 -0.039027434 -0.062298056 0.021283379 0.22245231
-0.025432507 -0.20394866 -0.07512527 -0.25929558 -0.06856343 -0.16652237 1.4799275 -0.08775729
-0.05018772 0.15804839 0.12255238 -0.15538676 -0.0364615 -0.13738902 -0.28694692 -0.0056588384
-0.11282701 -0.2480131 0.02443705 0.16706097 -0.03814687 -0.0192167 -0.7167172 -0.096290186
-0.4233089 0.0045543667 -0.110429965 0.1912138 -0.09883634 0.075272 0.05021912 0.08298004
-0.12028419 -1.0238032 0.0032122969 0.02364746 -0.10390235 -0.55904573 -0.07722311 -0.07049503
-0.046026226 0.09042933 -0.5438793 -0.25664112 -0.14287275 -0.0053627333 -0.01944106 -0.015855838
0.0192638 -0.016151201 -0.36181083 0.054519184 -0.08852144 -1.6404551 -0.037304178 -0.22137357
-0.0792488 -0.122043975 0.584327 -0.13189928 0.27038646 -0.22554494 -0.14346735 -0.085206576

main.2.bias f4 [256]
00000000: 3300 d53e 0a91 fdbd 066f ac3d 8dd6 6b3e
00000010: 9790 edbe a875 d43e e60c 9d3e 2fdf c9be
00000020: 4426 43be a053 843e 0e2d b43e fb27 253e
00000030: 3941 163f a076 8c39 1325 d8bd 12ba 1ebe
00000040: b548 ffbd b9ce da3d 4fc4 00be 3cdd f3bd
00000050: 8495 9a3e 018a 91be 1c23 b33e 5ca3 88bd
00000060: 0a86 1b3f ed83 373e 0d51 b0bc 8866 d3be
00000070: 7ad1 1b3e a1ce 36bd a473 e8bd 9102 38bd
00000080: 3d95 ff3e d96f c23d 4b9e dbbd 7229 ff3e
00000090: 3bb6 283f ad23 003e 90b4 343f 3d09 073f
000000a0: 3157 1c3f 889b 29be e5bd f5bd b8e4 383c
000000b0: 2807 0abb 7895 9e3e 87a1 4c3f 7a66 95be
000000c0: 8232 20bc 7df5 9dbd 297a b0be f2de 89be
000000d0: 79ab 27bd 5365 72bd a6ad 0d3f 4f46 5fbd
000000e0: 814b dbbe 4230 c63e 2cb0 1fbe ee8c c73e
000000f0: 4d31 ff3e 4fcb 4bbd fc00 203f 2041 d43e
00000100: 72ec 4e3e 6124 81be 8281 82bd 4fa6 093f
00000110: d995 32be 77d5 a63d 5278 e33c 315b 3abd
00000120: 560e 1c3f d6b1 92be 18b9 6bbe b59f c0bd
00000130: 32f5 473f 72b9 043c c44f 423f fa26 173f
00000140: a79f 1d3e 0ac2 93bd e41b 323e 8173 66bd
00000150: cb63 85be c5cd 43bc 313e ef3e 9a04 213f
00000160: 8235 263f 6bfe 823e 7e19 4d3f 3c47 bf3b
00000170: 5b33 163e 329c 533e a0da 0fbc 23f7 d5be
00000180: e8c7 3dbf 3a4b 373e 4fcc a7bd 02a0 783e
00000190: f8c8 92be 38a8 10bf fcf0 95be 0eb7 113d
000001a0: 5530 1bbd 0d1c 833e b2e5 51bd 884e 493d
000001b0: ba44 18be 36db bebe 08e5 813d ec09 013f
000001c0: 16f0 f43e 890d 083f fbb7 dcbd 895d ecbd
000001d0: b2c7 a93d f1c5 54bd 3b7e f23e db85 4e3d
000001e0: 0bf2 8e3e 3ee7 80bd f098 243f afa1 193f
000001f0: 81ff 213f fa91 26bd e91d 543e b655 b93e
00000200: b746 24be 337b f83e 1a9f 02bd 1d8e 3c3e
00000210: 52d0 8ebe 5c5b 0ebe 5188 fbbe 018a b03d
00000220: 0862 16be deed 893e b1dd 79bd e449 1d3f
00000230: 309d b2bc fead 4f3b 2220 b53e c9ad 7f3c
00000240: 9304 1e3f 79e3 a0bc eb9c a73c 92e0 9dbe
00000250: 7d13 6ebd df54 283f 771b 113e daec 88be
00000260: de2a 29be 4157 0bbe 89d8 c13d 417d 133f
00000270: 7775 ff3b b31e bbbd e7bf 3c3f dc80 cbbd
00000280: 3355 88bd b147 33be e31d 3e3f 636c 2ebb
00000290: 65ed 7ebe 385f 7bbe 3d4c f73c 6df3 82be
000002a0: 81a0 133c cd2f 8dbd ca4a 103e 296d 223b
000002b0: 518a 97bb 892f 433d 47d7 c8be e22c d53c
000002c0: 870a 153e fb24 58bd 9b5c 2c3e 8dcf 423e
000002d0: e026 95bd 00c3 81bd 6bf2 0dbe 0584 003e
000002e0: 61aa a8be 1780 fa3d ac89 e4bd 8b6b 513e
000002f0: eacd a1bb a713 ee3e 97ba a7bd 376f 9abe
00000300: 03ac ddbd 6687 23be 8ca1 0c3f 9763 5e3c
00000310: ba82 6d3d 6dbb 34be 793b 94bd f75c 97bd
00000320: 720c 86be b5cd 063f 42c7 313f 7741 ef3e
00000330: a9c0 eb3e fc1d 2e3f e26a 44bd a342 35be
00000340: 3c95 d1bd 78c5 203f fcec 86bc d72c b3bd
00000350: 2c65 363f 0d2f 2cbf fe51 a5be c632 3fbe
00000360: afe4 9abd f2a1 493e 11ec b8bd 25c4 db3c
00000370: 4b78 723e a2a0 e8bd 6e36 d2bc 331d ce3e
00000380: 6b91 073f 7e87 51bd b6ab 9e3e 99b6 2e3f
00000390: d29d 9ebc 193b ebbc a451 87bd d9e9 7c3e
000003a0: 89d7 6b3d b215 4f3e 6b9c 1abc c85f f03e
000003b0: 7ac9 04bd f0a1 00bf 04d3 adbd a00a 393f
000003c0: 807b 323f 022a 373f 15b0 483d 7749 193e
000003d0: 509b d83e 8e6b 6c3e 60af 6f3e b261 efbd
000003e0: c0cd c43d ceda 2cbd 8ca0 aa3e 6f07 7abd
000003f0: 4689 433d 9a9f 6fbe 9831 803e ed0a e83d
0.41601714 -0.1238118 0.084196135 0.23031063 -0.46399376 0.41496015 0.30673903 -0.39428088
-0.19057566 0.2584505 0.35190624 0.16128533 0.5869327 0.00026791263 -0.10553946 -0.15500668
-0.1246504 0.106839605 -0.12574886 -0.119074315 0.30192196 -0.284256 0.34987724 -0.06671783
0.607514 0.1792142 -0.021523023 -0.41289163 0.15216628 -0.04463065 -0.11350182 -0.044924323
0.49918547 0.094939895 -0.10723551 0.49836308 0.6590306 0.12513609 0.70588017 0.5274847
0.61070544 -0.16563237 -0.1199911 0.011285 -0.0021061394 0.3097341 0.7993397 -0.29179746
-0.009777667 -0.07712839 -0.344682 -0.26927906 -0.040935013 -0.05917866 0.5534309 -0.05451041
-0.42831042 0.38708693 -0.15594548 0.38974708 0.498423 -0.049754437 0.625015 0.41455936
0.20207384 -0.25223067 -0.06372358 0.5376939 -0.17439975 0.08146184 0.027767334 -0.045497123
0.60959375 -0.28651303 -0.23019826 -0.09405462 0.78108513 0.008100854 0.7590296 0.5904385
0.15392934 -0.072147444 0.17393452 -0.056262497 -0.26052698 -0.011950915 0.46727136 0.62897646
0.64925396 0.2558473 0.80117023 0.005837349 0.14668028 0.20665053 -0.008780152 -0.41790113
-0.7413316 0.1789979 -0.08193266 0.24279788 -0.28668952 -0.5650668 -0.2928542 0.035574965
-0.03788789 0.2560734 -0.051244445 0.04914716 -0.14869967 -0.3727662 0.06342512 0.50405765
0.4783942 0.53145653 -0.10777279 -0.11541278 0.08290042 -0.051946584 0.4736193 0.050420623
0.2791904 -0.06294106 0.64295864 0.60012335 0.63280493 -0.040666558 0.20714535 0.36198205
-0.160426 0.48531494 -0.031890012 0.18413587 -0.2789331 -0.13902038 -0.4912744 0.08620072
-0.14685833 0.2693929 -0.061002437 0.61440873 -0.021803468 0.00316894 0.35376078 0.015605398
0.6172573 -0.019639717 0.020460567 -0.30835396 -0.058124054 0.65754503 0.14170633 -0.26743203
-0.16520259 -0.13607503 0.09465129 0.57613 0.0077959853 -0.09136715 0.7373032 -0.09936687
-0.066568755 -0.17507817 0.74264354 -0.0026614896 -0.24895246 -0.24548042 0.03018772 -0.25576344
0.009010435 -0.06893883 0.1409103 0.0024784303 -0.004624643 0.047652755 -0.39226744 0.026022378
0.14554797 -0.052769642 0.16832201 0.19024487 -0.072828054 -0.063360214 -0.13862006 0.12550361
-0.3294249 0.122314624 -0.11159071 0.2045118 -0.004937877 0.4649937 -0.08189886 -0.30162975
-0.10823824 -0.15969619 0.54934 0.013573549 0.057986 -0.17649622 -0.07237906 -0.073907785
-0.2618137 0.52657634 0.6944467 0.46729633 0.46045426 0.680145 -0.047953494 -0.17701201
-0.10233542 0.62801313 -0.016470425 -0.08748787 0.71248126 -0.67259294 -0.32289118 -0.18671712
-0.07563149 0.19690683 -0.09029401 0.026826927 0.236787 -0.11358763 -0.02566072 0.40256652
0.52956265 -0.051154606 0.3099038 0.6824737 -0.019362364 -0.028714703 -0.066073686 0.24698581
0.057578597 0.2022312 -0.009436707 0.46948075 -0.032418706 -0.50247097 -0.08487514 0.7228184
0.69719696 0.71548474 0.04899605 0.14969431 0.42305994 0.23087904 0.23406744 -0.11688556
0.09609556 -0.042200856 0.33325613 -0.061042245 0.047738336 -0.23400727 0.25037837 0.11330209

main.4.weight f4 [256, 256]
00000000: 7c4e 22be 7a04 e03c e66f 28be e683 adbe
00000010: f718 49be 0360 07be 99b0 92bd 342d 003e
00000020: 30f4 5e3e 437f 3abe a63a 21be e496 26be
00000030: 1230 08be 826b 123d 0313 6dbe ff22 8e3a
00000040: f772 92bd 1a7b 56be a89d 1b3e e5d6 34bd
00000050: 9fe5 b4be b56b 08bf b301 fd3b 4ee9 fbbc
00000060: 502e 98bc 4468 3bbd cc2b bc3c 601e 9a3c
00000070: 1f14 02bf 8328 c3bc ebc5 ddbc 4caf 033d
00000080: 6d7b bbbd b7cc 83be 73ab e63c e47e f9be
00000090: d9d1 9ebe 0380 5e3e 7504 a7be 3904 3dbe
000000a0: 8c72 1cbe 3107 213e b4ba edbe a362 62bd
000000b0: da9e eabc dda7 663e fe99 19be e0c1 b53e
000000c0: dc0a 98bc 7769 8abd 7355 eabd 208b 083e
000000d0: d80a a93c d903 0abd de66 21be 6ca4 a23c
000000e0: 1b5e 52bd 3db1 aabb 7938 843e 8344 20be
000000f0: 588c f6bd c28c f2bc 1d15 54be 4113 31be
00000100: 5cb1 29be c5ea 89be f067 9abb ceef dabe
00000110: e834 99be e18a 9fbe a8e0 2dbd cd96 4ebd
00000120: 4534 a6bd c77b a1bd 65e5 203e 5256 9fbd
00000130: 1a1e 0bbe 9972 bebc df0f 45be 438a 85be
00000140: 9710 573d c673 acbc 7016 47be ae2d 8fbd
00000150: 6c00 fa3c f918 68bd de48 31be 5274 44be
00000160: 14ef 95bd 86f2 85be b3a9 e7bc 1ae6 b53e
00000170: 3a45 61be e416 84be 971b 913d 7ba8 95be
00000180: d008 17bd d1b8 16be 6742 9abe a9b1 05be
00000190: a65c 2cbe 5ad2 6fbd 3cc6 94be 39ac bbbe
000001a0: 6b43 7d3c 2b13 90be 9dea 5c3d 6cd2 013e
000001b0: 1fb2 9abd ab28 78bd 4d73 8ebd 9836 abbd
000001c0: ce43 5cbe 6fd5 893d 399d ab3e ab97 d83c
000001d0: 5756 963e 3697 243d a19b 3bbd 7b39 31bd
000001e0: 330a 333e 469b 3cbe 840f f83c 18fe 48be
000001f0: 213e 59be c99c 40bd 1bff 02be ac9d 92be
00000200: 15b9 213e 6921 44be 58bc fc3c 37d9 3dbd
00000210: 6aff 3cbe 4dc3 9ebd 6488 52bd 12dd a2bd
00000220: b8f8 a83c 7d36 3bbe ad6b 2bbd 7c5a d1bd
00000230: cc42 66be 5747 1a3f bfeb 60bd 3f30 a7be
00000240: 5f84 ae3d e233 59bc e01d babb 6695 f03d
00000250: d39c e6bc ccef c8be bab5 91be 6246 b5be
00000260: 3d5a bfbe 6a35 413d 6553 6b3e 8aee 78be
00000270: f8c0 e2bc f894 32be ff21 54bd a9ea 26bd
00000280: 76d5 a13c ec5d e23c e5f3 67bd f3cd 983c
00000290: f340 293d 1581 a5bc 7b6e fa3d aa77 9bbc
000002a0: eba9 37be 13c0 c13c d87c 1abe 68cb 2c3d
000002b0: f2b2 953c 21d4 a2be 2964 c1be 509d 99bd
000002c0: 8e57 69be 95ef 443c 7110 73be d674 b33e
000002d0: 89b0 02bc aaa9 2a3c 3319 4a3a cad3 28bf
000002e0: f65f 353d 22fd 02be dc14 043d d8b3 dcbd
000002f0: 13ce 0dbe a731 49be 6959 6fbd 8f8c 603e
00000300: ce79 78bd ff1f 2abd 6d18 87bc 5958 a6bd
00000310: 44e2 91be 48f2 09be eb1d 61bd 0d63 89bd
00000320: b56e f33d 5be2 0abe ee8c dbbd 7802 7dbe
00000330: 8d53 dfbd 381a 21be 90ac 85be 227f f3be
00000340: 0e2b 2dbd efd9 debe 9252 f3bc 3e43 a13c
00000350: 237b 35be a365 d6be 1686 74bd ffe9 d5bc
00000360: 528a c93c 4153 7ebe ff16 00bd db88 b1bd
00000370: 4295 2dbe 3803 3abe 6b97 7cbe 4396 65bc
00000380: 5eb0 5fbe 4363 3ebd 8c6d e3bd 5e0c abbd
00000390: 8261 79bd 0f30 89bd 6101 3cbd 352e f7bd
000003a0: f18e 09be 6d49 6cbe 2460 b6be f781 8ebe
000003b0: 3af2 97bd 5b57 f5bc a2b5 50bd 24ea efbd
000003c0: 3f8f 273a e905 ffbd 4fda fe3d a9cc 08bf
000003d0: 6b20 133d b305 5cbe abab d5be d4f1 673d
000003e0: a3eb 8b3e 44b7 27bd dc03 f4bd 6326 6d3c
000003f0: 8289 8c3e c0df 54bd f8dc 39be 4566 3f3e
-0.15850252 0.027345885 -0.16448936 -0.33889693 -0.1963843 -0.1322022 -0.071625896 0.12517244
0.21772838 -0.18212609 -0.15745029 -0.16268498 -0.13299587 0.03574706 -0.23151784 0.001084417
-0.07150834 -0.20945397 0.1519686 -0.044150252 -0.35331437 -0.5328935 0.00772115 -0.030750897
-0.018576771 -0.045753732 0.022970103 0.018813312 -0.5081195 -0.023823028 -0.027071914 0.032149598
-0.09154401 -0.25742123 0.028157925 -0.48729622 -0.31019476 0.2172852 -0.32620588 -0.18458642
-0.15278071 0.157254 -0.46431506 -0.05526985 -0.0286402 0.22524972 -0.1500015 0.35499477
-0.018559866 -0.06758397 -0.114420794 0.13334322 0.020635054 -0.033695076 -0.15761897 0.019853793
-0.051359277 -0.0052091167 0.25824335 -0.15651135 -0.12038487 -0.029608134 -0.20711179 -0.17292501
-0.16571563 -0.26936927 -0.0047120973 -0.4276108 -0.29923177 -0.31160644 -0.042450577 -0.050436784
-0.08115438 -0.07884937 0.15712507 -0.07780136 -0.13585702 -0.023248004 -0.19244336 -0.26082048
0.052506056 -0.021051299 -0.19442153 -0.069911346 0.03051778 -0.05666444 -0.17312953 -0.19184998
-0.07320991 -0.26161593 -0.028279161 0.35527116 -0.21999064 -0.25798714 0.070853405 -0.29230103
-0.03687364 -0.1471894 -0.30128786 -0.13056053 -0.16832218 -0.058550216 -0.2905749 -0.36654833
0.015457968 -0.28139624 0.053934682 0.12677926 -0.07553505 -0.06058566 -0.06955586 -0.08360022
-0.2151024 0.06730162 0.3351839 0.026439508 0.29362747 0.04018327 -0.045802716 -0.04326771
0.1748436 -0.18418607 0.030280836 -0.19628179 -0.21215107 -0.047024522 -0.12792628 -0.2863592
0.1579326 -0.1915337 0.030851528 -0.04634973 -0.18456808 -0.077520944 -0.051399603 -0.07952322
0.02062641 -0.18282504 -0.041850735 -0.10222337 -0.22486418 0.60265106 -0.054912325 -0.32653996
0.085213415 -0.013256999 -0.005679831 0.117472455 -0.028150951 -0.3924545 -0.2845896 -0.3540526
-0.37373534 0.04717008 0.22981031 -0.24309745 -0.027679905 -0.1743964 -0.051790234 -0.040751133
0.019755106 0.027632676 -0.05662908 0.018652892 0.041321706 -0.020203153 0.12228104 -0.018977959
-0.17935912 0.023651158 -0.15086687 0.04218617 0.018273804 -0.31802467 -0.3777173 -0.07500708
-0.22787306 0.012020011 -0.2373674 0.35050076 -0.00797666 0.010416428 0.00077094435 -0.65948164
0.04428097 -0.12791875 0.032246456 -0.1077649 -0.13848142 -0.19647847 -0.058434878 0.21928619
-0.060663037 -0.04153442 -0.01649114 -0.0812232 -0.2849294 -0.13471329 -0.054960173 -0.067083456
0.1188635 -0.1356291 -0.107202396 -0.24707973 -0.10904608 -0.15732658 -0.26108217 -0.47557932
-0.04227739 -0.43525645 -0.029702459 0.019685384 -0.17722754 -0.41874418 -0.059698187 -0.026112555
0.02460209 -0.24836446 -0.03127193 -0.08668681 -0.16951469 -0.1816529 -0.24667136 -0.014012876
-0.21844622 -0.046481382 -0.11104879 -0.08351968 -0.060884006 -0.066986196 -0.045899753 -0.1206936
-0.13433434 -0.23074885 -0.35620224 -0.2783353 -0.07419248 -0.02994888 -0.05095447 -0.11714581
0.000639189 -0.12452299 0.12443983 -0.53437287 0.035919588 -0.21486549 -0.41732535 0.05662711
0.27328214 -0.04094626 -0.119147986 0.014474484 0.2744866 -0.051971197 -0.18150699 0.18691356

main.4.bias f4 [256]
00000000: 12fd f8bd 4241 c5bc 3bdb a2be 4f44 29bd
00000010: 0995 68bd 0d95 f6be 6670 0fbe d387 81be
00000020: ca43 ecbd ed3a 6ebe dca7 b6bd eb63 00bf
00000030: 006e 8fbd e5cf 6f3d 66a0 35be fcd5 bcbd
00000040: 461b 343e 604a e1be 9044 9bbd 6926 bb3d
00000050: 7b3a aabe ef0e 23bd 618b ccbd a544 b83e
00000060: c7ee 01be 42b2 1bbd 5d34 e8bd 05bc 21be
00000070: 0177 e0be f2cc dfbd 42b2 01bf 45d1 c5be
00000080: 93ef 4dbd e321 6c3e 148c babd d107 f5be
00000090: 5c19 cd3e 3660 e2be 265d 91bc 0cf4 86bd
000000a0: 3a8b 34be 08ae 6a3d ab27 50be 04c8 33bd
000000b0: 6143 95be 8ca8 0ebe 9abe f3be 7886 22be
000000c0: 91b0 0abf 3af6 34be 200e 5bbd afc8 a2bd
000000d0: 5d7f c3bd d415 13bf 7199 28bd 4b0d 63be
000000e0: f99f 16bd a170 8abd 208f 91bd 170d eebe
000000f0: 9482 45be 5409 1bbe 43b0 21bf 524a b83e
00000100: 51db 243d f975 80bd bc05 e3bd a7e7 b6bd
00000110: 3ff7 18bd 5a47 073f 82cb bf3c 6a1a 7abe
00000120: 4053 93be a5f2 3abd 5c22 cbbd 0520 86be
00000130: 0954 6fbe 35c3 88be 5a26 063f 7cc1 91bd
00000140: 08ea aa3e 9688 a8bd d48e debd 0f4b 02be
00000150: 1d99 2c3e 840e abbe 4adc e4bc b322 84bd
00000160: 8ca2 ecbd 342b 41be ce85 c9bd ba2f 33be
00000170: df80 acbe 1e1e 01bf 1050 9fbe 8fb2 04bd
00000180: e234 19be 86c7 8fbd 771d 58be 1305 d13d
00000190: ce29 81be 8c81 3cbe 8e72 31bd 9b8f fabd
000001a0: 6c55 eebe bb56 4abe 308a 803d c22e 57bd
000001b0: d87a d4bd 61e3 06bf 58bb c3bd 1357 f3be
000001c0: 96db a5bd 587d d8be a3bf 92be 5a7d f9bd
000001d0: e6d7 0dbd 2eff 36be ee5d 22bd 7a3c 7b3e
000001e0: 4ab6 21bf ea02 17be 3899 d4bd c8c1 733c
000001f0: b7b4 e0be cf5c 62be 5de9 1abe 1aa5 ccbd
00000200: e842 3cbd fe19 e8be 2fc2 21be 79ab bebe
00000210: 5654 8fbd f48c bebe 2d4f c9bd f196 aebd
00000220: 6a6c 8cbd 0460 0bbf ddb4 2cbe 88dc 0dbf
00000230: 8de8 93be d3ed 0abe 73fc fcbd 5024 41be
00000240: bada 66be 5083 5dbe c3eb f43b 2c87 e4bd
00000250: 7b10 e9bd 2519 8dbe c5d6 7fbd 87ff 8bbe
00000260: 8143 3bbe 8de6 b3be 0e03 ccbe cd3d dcbe
00000270: 8b30 febe 9b7f bbbc a18f 07bd 7988 fabd
00000280: 9de9 79bd ce43 5cbe f95a a7be 08fe 9fbe
00000290: 99b4 4dbd 36a6 1bbe 9c34 49be 2345 93bd
000002a0: e6a2 55be 1c58 f5bd 3c04 47be 7dfd bfbd
000002b0: 3b0a c4bd 734c aabd 20d0 01be 86b9 5bbd
000002c0: 9022 e93d 97a2 acbc 180c cabd b00c 7ebe
000002d0: 0232 b0bd 8746 56be 0521 b4be d19d afbc
000002e0: c7db cbbc 7551 0abe 6f9a 35be 5d16 3bbd
000002f0: 96f4 9cbe 98c7 04bf 2ad6 6ebd 5644 b9bd
00000300: 9a74 33be 1e26 18be 324c ed3e ad6f d0be
00000310: 3811 acbe 1bfc 81be 404f b03d 3ffa 28be
00000320: 0470 bbbd 531f c5be 4d75 4f3e da7f 943d
00000330: c763 74be 78db 7abd 0fd8 b5bd 1ca4 19be
00000340: 1632 bebe 8789 f0bd 1585 28be 13fa a6be
00000350: 8ca9 8ebd a473 09bf 54c1 203d 751a 01be
00000360: 89d1 99be 73e2 6f3e 55e9 afbd df32 90be
00000370: dbbd c6be 163e 2cbe 1f38 21be 3f59 0d3e
00000380: 0f55 d4bd 9a18 4b3d 4e9f 86be 9176 0cbe
00000390: 6a75 c13d 494c 21be 5d24 0fbe d5fb 4fbe
000003a0: af6f d9bd 045a a9bc 1070 55be 6785 893f
000003b0: 35f1 4dbe 5421 bbbd cf58 02bf 85a7 103e
000003c0: dc1a 93be ce0b 84bd 191c 31be f54e 90be
000003d0: 1047 32be 0b20 8abe e33b d7bd a4bc 6fbe
000003e0: 8756 17be 216d f6bd 426a dbbe 989e 29be
000003f0: 1433 a2bd 4f6d 59be 1015 243f 3280 8abe
-0.12157644 -0.024078969 -0.31807885 -0.04132491 -0.056782756 -0.48160592 -0.1400772 -0.25298938
-0.11536367 -0.23264666 -0.089187354 -0.5015246 -0.07003403 0.058547873 -0.17736968 -0.09220502
0.17588529 -0.44002056 -0.07581437 0.091381855 -0.33247742 -0.039809164 -0.09987522 0.35989872
-0.12688743 -0.038011797 -0.113381125 -0.1579438 -0.43840793 -0.10927762 -0.50662625 -0.38636222
-0.050277304 0.23059802 -0.09108749 -0.47857526 0.4005841 -0.44214028 -0.017744612 -0.06589517
-0.17631236 0.057294875 -0.20327632 -0.04389192 -0.2915297 -0.13931483 -0.47606355 -0.15871608
-0.5417567 -0.17672053 -0.053480268 -0.079484336 -0.09545777 -0.5745518 -0.041161958 -0.2217304
-0.036773656 -0.067597635 -0.07107377 -0.46494362 -0.19288093 -0.15140277 -0.6315958 0.35994202
0.04024822 -0.062725015 -0.11085078 -0.08930903 -0.037345167 0.5284325 0.02341247 -0.24424139
-0.28774452 -0.04564156 -0.09918663 -0.26196304 -0.233719 -0.2671143 0.5240227 -0.07116982
0.33381677 -0.08229177 -0.10867086 -0.12723945 0.16855283 -0.33409512 -0.027937073 -0.06451931
-0.11554441 -0.18864137 -0.09839974 -0.17498675 -0.3369207 -0.5043658 -0.3111577 -0.03239685
-0.1496158 -0.07020478 -0.2110499 0.10206046 -0.25227207 -0.18408793 -0.04332214 -0.12234422
-0.46549547 -0.19759648 0.06276357 -0.052534826 -0.10374993 -0.526907 -0.09557217 -0.4752737
-0.08098523 -0.4228313 -0.28661832 -0.12182112 -0.034629725 -0.17870781 -0.03964036 0.24534789
-0.63168776 -0.14747205 -0.10380787 0.014877744 -0.43887874 -0.22105716 -0.15128084 -0.09992428
-0.045962244 -0.4533233 -0.15796731 -0.37240198 -0.06998508 -0.37216914 -0.09829555 -0.085248835
-0.06856616 -0.54443383 -0.16865869 -0.5541463 -0.2888836 -0.13567285 -0.12352838 -0.18861508
-0.22544375 -0.21632123 0.007474394 -0.111585945 -0.113800965 -0.27558246 -0.06246068 -0.2734339
-0.1828747 -0.35136834 -0.3984608 -0.430159 -0.4964641 -0.022887995 -0.03309596 -0.12233061
-0.061013807 -0.2151024 -0.32686594 -0.31248498 -0.05022106 -0.15200123 -0.19648975 -0.07190921
-0.20862922 -0.11979696 -0.19435209 -0.09374521 -0.09572264 -0.08315363 -0.1267705 -0.053643726
0.113835454 -0.021073623 -0.09865588 -0.24809527 -0.08603288 -0.20925342 -0.35181442 -0.021437557
-0.024885071 -0.13507636 -0.17734693 -0.045675624 -0.30655354 -0.51867056 -0.05830971 -0.09046237
-0.17524949 -0.1485829 0.46347195 -0.40710202 -0.33606887 -0.25387654 0.08608866 -0.16501711
-0.09152225 -0.3850046 0.2025959 0.07250948 -0.23866187 -0.061244458 -0.088791005 -0.15004009
-0.37147588 -0.11744981 -0.16457017 -0.32612666 -0.06965932 -0.5369208 0.039246872 -0.12607749
-0.30042675 0.23426227 -0.085894264 -0.28163812 -0.38816723 -0.16820559 -0.15744065 0.13803576
-0.10367786 0.04958401 -0.26293415 -0.13717104 0.09446223 -0.15751757 -0.13978715 -0.2031091
-0.10617005 -0.020672806 -0.2084353 1.0743836 -0.20111544 -0.09137216 -0.5091676 0.14126404
-0.2873143 -0.06447564 -0.17295875 -0.2818524 -0.1740992 -0.26977572 -0.10509469 -0.23411804
-0.14779101 -0.120325334 -0.42854506 -0.16564405 -0.07919899 -0.21233104 0.6409464 -0.2705093

main.6.weight f4 [1, 256]
00000000: 85da 31bc ef32 85bb 68e6 7e3d 4cbc 0dbc
00000010: 32cb 5dbb 4a3f 553c 46b1 15bd dc74 533b
00000020: 7489 3f3c b8ca bc3c f801 b9bb 5f08 44bd
00000030: d990 07bb 73d4 8ebc 5898 de3d 2ab7 f4b9
00000040: e633 b9bd 3831 4bbd 65a0 863c f5b7 ac3e
00000050: 88ef debc ab64 20bc 2b89 7bbc 2380 c1bd
00000060: a423 17ba 428a 9cbd 7d30 e13c b2ba 443d
00000070: 87b0 b2bd 56c2 8e3b 35c4 2fbd 3d3a 463b
00000080: 04d7 ea3c bb15 37bd 5371 8cb5 4c65 7e3d
00000090: 22f9 f5bc 4a17 09bd 9636 95bb df60 02bd
000000a0: a487 0fbb 00bb 57bc 715a 01bd 88cb 8fbd
000000b0: 6e2c bb3e 49e6 fc3c 1202 6a3e e4b2 973c
000000c0: cbf3 1cbd 1ad4 473c 2fba 6cbd 03e9 683d
000000d0: 5742 7f3c ceec 6a3e 8de6 7f3b 44c2 97bd
000000e0: 09eb 4dba 7489 93bd 60f5 b83c 6974 83bd
000000f0: 8eca d93d fafe 953d dea1 10bd d672 5abc
00000100: 5255 46bb 4911 38ba b678 f1bc f16c 883d
00000110: d6dc 833a 16c1 963e d329 cbbd 29db d03d
00000120: eb97 1a3e f3d0 303d 3a3a 27bd ca78 733d
00000130: 9959 a63d 274a f4bd 17c2 aebe f73a ec3b
00000140: 0f17 533f 4b24 4fbd 3609 15bc 79df 19bd
00000150: 512f 39bd 8d78 a7bd 118e 1b3b 7928 233d
00000160: ca29 863c fdfb 4aba 9735 a43d 0fc1 88bd
00000170: 634d 95bd 5081 64bd d4d7 a23c d666 ecbc
00000180: 1af4 d03d 630a c4bb b3aa 22bc a1d9 debd
00000190: 959b 0fbd 1d04 67be 5948 08bd dff6 523d
000001a0: 1e0d 0b3e 483f fd3b abaf dbbe e155 313c
000001b0: 9221 33bd b635 bb3d 9cd0 533c 794c 523d
000001c0: 5152 92bc 1ee8 753e a551 063c 7a32 a9bc
000001d0: 6bd0 33bb 7a08 043d 124f 1e3d 3884 01be
000001e0: dd4a 8abd 06fd 433c 4c5d 373d d0e9 9f3c
000001f0: 5d92 0d3e b97e 3c3d f32e 21bc 7c94 d9ba
00000200: 975d b83b 5116 abbc 580d c2bc b1d3 1fbf
00000210: 410a aebb f536 9a3c 2196 b23c e25d d83d
00000220: 0a1f 1f3c e37b dc3e f424 19bd 38dc 34bd
00000230: e12e d6bb f907 e1bc 73d5 b33d bb8c 9c3d
00000240: e789 f5be 7e87 c0bd 8a86 d5bd b979 81bd
00000250: 08d5 b03c 730d 723c ddd8 163d a380 a23c
00000260: 5652 f83c d352 4a3d b00d 46bc 2e05 733d
00000270: aada c23c ac28 89bb 4eee 9fbc 0fb9 743a
00000280: 2b3f 01bb 6172 973d 148e 353e b9b5 4cbd
00000290: 8cd3 69bc 008a 523b 2c6d c9bc 9950 853c
000002a0: be02 8cbe 8916 adba 2631 b0bd 6bdb a1bd
000002b0: 6175 2ebd 7b75 943b a2c0 df3d fdc0 95bb
000002c0: 26df be3c f245 733d eaf6 393d 8d20 403d
000002d0: 1885 a13b 6581 813c 0a94 aabb 3128 c13a
000002e0: 2256 f33b 941b 05be 992e 8abc f59a 5e3b
000002f0: 3b7e 6bbc 67a6 153f b67d aabd d48e 5a3c
00000300: 6a67 68ba 0d4d 89bc a599 c0be ed10 c6bc
00000310: 17a6 5d3d 2b99 203b 1ecf 04be 276f 00bb
00000320: 15d2 2bbd 8c74 6d3c c329 d2bd 99f6 52bd
00000330: 645d a03d e171 193c 5267 b0bb 5d49 98bc
00000340: f5ac 2d3d 31e3 ebbd 22f2 873c 19dc 0f3d
00000350: e424 0b3c 8fbb 56bd 4b73 1fbb 258d 45bd
00000360: f511 fabb 64bf a1be 60f5 82bc 618b 79bd
00000370: fab4 933c 1bf9 843d d525 e73c 146a 8ebd
00000380: 0ae4 8a3b 4417 9d3b abd7 013c 1ee9 5fbc
00000390: 98a6 9bbc 8232 1dba f47f b93d cc92 8abe
000003a0: 966e cabc 2860 45bb 7e9a f3bb 6032 743f
000003b0: e516 94bc c58f 653c 208c c93c d6b9 7b3e
000003c0: 51cb 5a3c 0e2a 28bc 9066 083c c869 18bd
000003d0: 0eb0 a23d bf80 fe3d 9790 fe3c e94e cdbd
000003e0: d086 a93a 4ad2 933d acdf 01bd d74d ae3d
000003f0: b4a2 56bd 7e81 793d 30e7 0fbf a06e 43bb
-0.010855322 -0.0040649096 0.06223145 -0.0086508505 -0.0033843038 0.013015578 -0.036546014 0.0032265699
0.011690486 0.023045883 -0.0056459866 -0.047859546 -0.0020685701 -0.017435288 0.10868901 -0.00046675775
-0.09043102 -0.049607486 0.016433904 0.33734098 -0.027213827 -0.009789626 -0.015352528 -0.09448268
-0.0005765504 -0.07643558 0.027488941 0.04802961 -0.08725076 0.0043566627 -0.042911727 0.0030247115
0.02866698 -0.04469846 -1.0463795e-06 0.062108323 -0.030026022 -0.033469476 -0.0045536263 -0.031830665
-0.0021900916 -0.013167143 -0.031580392 -0.070212424 0.36557335 0.030871527 0.22852352 0.018517919
-0.038318437 0.012196565 -0.057794746 0.056862842 0.0155797815 0.22941896 0.003904733 -0.074101
-0.00078551524 -0.072039515 0.022577941 -0.06418688 0.10634337 0.073240235 -0.03531062 -0.013333043
-0.0030263257 -0.00070216187 -0.029476505 0.06661404 0.0010060321 0.29444188 -0.09920087 0.101980515
0.15097015 0.04316802 -0.040827014 0.059441365 0.08122558 -0.11928206 -0.34132454 0.0072091776
0.8245706 -0.05057172 -0.009096434 -0.037566636 -0.04521114 -0.0817729 0.0023735801 0.03983352
0.016377348 -0.00077432377 0.08018034 -0.06677448 -0.07290151 -0.055787385 0.019878305 -0.02885763
0.10202809 -0.0059826835 -0.009928393 -0.10881353 -0.035060484 -0.22560163 -0.03327212 0.051504966
0.13579223 0.007728491 -0.42907462 0.010823698 -0.043733187 0.09141104 0.012928154 0.05134246
-0.017861517 0.24014327 0.0081981765 -0.020653952 -0.002743746 0.032234646 0.038649626 -0.12648094
-0.0675256 0.011962181 0.04476671 0.01952067 0.13825364 0.04601929 -0.009837854 -0.0016600038
0.005626391 -0.020884665 -0.023688003 -0.6243239 -0.005311281 0.018825034 0.021800103 0.10564782
0.00971199 0.43063268 -0.037388757 -0.04415533 -0.00653635 -0.027469622 0.087809466 0.0764403
-0.47956774 -0.09400843 -0.10426052 -0.06322045 0.021585956 0.014773714 0.03682791 0.01983673
0.030312698 0.049395394 -0.012088224 0.05933111 0.023785908 -0.0041857567 -0.019522812 0.0009335437
-0.001972149 0.07394863 0.1772998 -0.04997799 -0.014271628 0.0032125711 -0.02458819 0.016273784
-0.27345842 -0.0013205569 -0.08603124 -0.07903179 -0.04259241 0.0045306063 0.10925414 -0.004570125
0.023299765 0.059392877 0.04540149 0.046906043 0.004929196 0.01580877 -0.005205636 0.0014736709
0.0074260393 -0.12998801 -0.016867923 0.0033966873 -0.014373357 0.58457035 -0.08324759 0.013339717
-0.00088655076 -0.016760373 -0.3761722 -0.024177993 0.054113474 0.0024505358 -0.12969634 -0.0019597502
-0.041948397 0.014493119 -0.10261872 -0.051504705 0.07830313 0.00936553 -0.0053834105 -0.01858967
0.042401273 -0.11517943 0.01659495 0.03512201 0.008492682 -0.052424964 -0.0024330195 -0.04823031
-0.007631535 -0.31591332 -0.015986145 -0.060923938 0.018030632 0.064928256 0.028216282 -0.069538265
0.00423861 0.0047940332 0.007924954 -0.013666419 -0.019000337 -0.0005996601 0.09057608 -0.27065122
-0.024710935 -0.0030117128 -0.0074341884 0.95389366 -0.018077323 0.014011328 0.02460295 0.2458261
0.0133541385 -0.010263933 0.008325234 -0.037210256 0.07943736 0.124269 0.031074805 -0.100248165
0.0012933854 0.07217844 -0.03170745 0.085109405 -0.05240126 0.06091451 -0.5621214 -0.0029820576
